archive/lstm_TSLA.pt (torch, 228003 bytes, 11 tensors)

lstm.weight_ih_l0 f4 [256, 5]
0	0x3e050b36	0.12992558
1	0x3e0e7271	0.13910843
2	0x3b4a3d46	0.0030859276
3	0x3e167da8	0.14696372
4	0xbcf7adcc	-0.03023424
5	0x3d8cc085	0.06872658
6	0x3d0fb564	0.035085097
7	0x3e29cd8a	0.16582313
8	0x3e87ffae	0.26562256
9	0xbde5b7d1	-0.11216701
10	0x3e0f0783	0.13967709
11	0x3d79c5a7	0.06097951
12	0x3dfc7b43	0.12328198
13	0x3d6a26f7	0.057166066
14	0x3e1ac6b4	0.15114862
15	0x3ba32a14	0.0049793813
16	0x3e039b4e	0.12852213
17	0x3d3419c2	0.043969877
18	0xbca352b9	-0.019936906
19	0x3df17def	0.11791598
20	0xbd125ba8	-0.03573194
21	0x3c8e69d2	0.017384443
22	0xbcd7c02c	-0.026336752
23	0x3dfcc2bb	0.123418294
24	0x3b9dcc34	0.0048156027
25	0xbd30a078	-0.043121785
26	0xbc46ee98	-0.012141846
27	0xbd678138	-0.056519717
28	0x3d2e3a0f	0.042535838
29	0xbd640b63	-0.05567492
30	0x3dcc7490	0.0998317
31	0xbe02670d	-0.12734623
32	0x3d93c04e	0.072144136
33	0xbc48e668	-0.012261964
34	0x3be10e7d	0.006868182
35	0x3dbc48c3	0.09193566
36	0x3d341a68	0.043970495
37	0x3dfaf01d	0.12252829
38	0x3d57cc96	0.052685343
39	0xbcd26f14	-0.025687732
40	0x3d3904c0	0.045170546
41	0xbc936f40	-0.017997384
42	0x3d871eac	0.06597647
43	0x3e077d0b	0.13231294
44	0x3da171dd	0.07883046
45	0xbd338a4a	-0.043833055
46	0x3dc5e633	0.09663048
47	0x3d2952fa	0.0413389
48	0x3dcc3840	0.09971666
49	0xbc4ce8df	-0.012506693
50	0xbe1c6dc8	-0.15276253
51	0xbd8b463e	-0.06800507
52	0xbdfac4d6	-0.12244575
53	0x3db378ab	0.0876325
54	0x3dfd386c	0.12364277
55	0x3d7fb71f	0.062430497
56	0x3d8b8609	0.068126746
57	0x3c9a00d3	0.018799221
58	0x3e110fa6	0.14166126
59	0xbd250d08	-0.04029563
60	0xbd52d163	-0.051469218
61	0xbe188b51	-0.14896895
62	0xbd02c74b	-0.03192834
63	0xbdf26671	-0.118359454
64	0x3e0904fa	0.13380805
65	0xbc0221df	-0.007942646
66	0x3e028a75	0.1274813
67	0xbd4f1c92	-0.050564356
68	0xbd2ae44b	-0.041721623
69	0xbde78191	-0.1130401
70	0x3e26b5b9	0.16280259
71	0x3de2a31e	0.110662684
72	0x3e3bdddd	0.18346353
73	0xbc8c7fc7	-0.017150773
74	0xbe1b0bcf	-0.15141223
75	0xbd3c90e9	-0.046036635
76	0xba5c79be	-0.0008410475
77	0x3e00377b	0.12521164
78	0x3e1e7f8d	0.15478344
79	0x3e8238f7	0.25434086
80	0x39df773c	0.0004262271
81	0xbce16a4f	-0.027516512
82	0x3e03a8ff	0.12857436
83	0x3b456348	0.003011899
84	0x3c4d8ee1	0.012546272
85	0x3c9f9755	0.01948134
86	0x3e1f9512	0.1558421
87	0xbd0f7d02	-0.035031326
88	0x3d1e0f7e	0.038588993
89	0x3e10b88e	0.14132902
90	0x3d0cdcdc	0.034390315
91	0xbc5c564b	-0.013448308
92	0x3db392ce	0.08768235
93	0x3de48e81	0.11159993
94	0x3d60c675	0.054876763
95	0xbd172afe	-0.036906235
96	0x3e17a02c	0.14807194
97	0xbc66d729	-0.014089384
98	0xbc416b49	-0.011805364
99	0xbe1f2e81	-0.15545084
100	0xbcfbd3fb	-0.030740729
101	0x3d8cf61c	0.06882879
102	0x3c8f66b4	0.017505027
103	0xbd782dc8	-0.060590535
104	0xbc3965fd	-0.01131582
105	0xbd3c3dff	-0.04595756
106	0xbda2a325	-0.079412736
107	0xbd42dea3	-0.047575604
108	0xbddbb4f3	-0.10727873
109	0xbda10f29	-0.0786422
110	0x3e32cfb4	0.17462045
111	0x3d8fef20	0.07028031
112	0x3dae6a5a	0.08516379
113	0xbd9bea0b	-0.076129995
114	0xbe735d61	-0.2376609
115	0xbc1b86a1	-0.009492547
116	0x3d53d5c5	0.05171754
117	0xbda31cf2	-0.07964505
118	0xbca3c6be	-0.019992229
119	0xbc76b428	-0.015057601
120	0x3c204ade	0.009783475
121	0xbd14e747	-0.036353376
122	0xbbedd5d1	-0.007258155
123	0xbdaa3a65	-0.08311919
124	0xbd131ef0	-0.035918176
125	0xbdce2688	-0.10065943
126	0xbdc32c6e	-0.09529959
127	0xbe1fc25b	-0.15601484
128	0x3cb5e5ea	0.022204358
129	0xbb48426a	-0.0030557164
130	0x3dafb3be	0.08579205
131	0x3cd0edd2	0.025504027
132	0xbde99cc9	-0.114068575
133	0x3db89c89	0.09014232
134	0xbdaa429c	-0.08313486
135	0xbbafcc03	-0.0053648963
136	0xbd54c51e	-0.051945798
137	0xbd96c814	-0.073623806
138	0x3dc6b81a	0.09703083
139	0xbcbad7fa	-0.022808064
140	0x3d9d84fc	0.076913804
141	0xbd8de60b	-0.06928643
142	0x3dfc20e4	0.12310961
143	0xbd617f7f	-0.05505323
144	0xbc1eb961	-0.009687752
145	0x3d593b2e	0.053034954
146	0x3dc3f975	0.095690645
147	0x3e0881d2	0.13330773
148	0x3e1fbeec	0.15600175
149	0xbe0bfa66	-0.13669738
150	0x3d58344a	0.05278424
151	0xbd135dcb	-0.03597812
152	0x3c09b630	0.008405253
153	0xbd982d34	-0.07430497
154	0x3d437263	0.04771651
155	0xbd8f7fb1	-0.07006777
156	0x3dd25572	0.10270204
157	0x3d9ba85d	0.07600472
158	0x3dc63594	0.09678188
159	0x3d6c3146	0.05766418
160	0x3e03294d	0.12808724
161	0x3d3e77bb	0.046500903
162	0x3d03b432	0.03215427
163	0xbdb2b8a8	-0.08726627
164	0x3dde7952	0.10862984
165	0x3ccef106	0.025261413
166	0xbc228a9d	-0.009920743
167	0x3e1ab608	0.15108502
168	0x3d9ba678	0.07600111
169	0xbd7a044b	-0.06103925
170	0xbcb271de	-0.021782812
171	0x3d3fe042	0.04684473
172	0x3df111b3	0.11770954
173	0x3d038a76	0.03211447
174	0xbd5cbed0	-0.05389291
175	0xbc4a799a	-0.012358094
176	0xbd456c23	-0.04819883
177	0x3db0e022	0.086365
178	0x3e1dc1a2	0.15405896
179	0xbe3a99ab	-0.18222682
180	0x3cf0cb0d	0.029393697
181	0x3da3efa1	0.0800469
182	0x3d16d3d0	0.036823094
183	0xbbc957cb	-0.006144499
184	0x3e071d9b	0.13194887
185	0x3daf461e	0.08558296
186	0x3d999751	0.074995644
187	0x3a1b7f7a	0.0005931776
188	0xba58b272	-0.00082663365
189	0x3d5d6d6e	0.05405944
190	0xbb9f6471	-0.0048642685
191	0xbca6bbb6	-0.02035318
192	0x3db44526	0.088022515
193	0x3de23f58	0.11047238
194	0x3d0326cc	0.03201942
195	0xbc674128	-0.014114656
196	0x3cd05356	0.025430363
197	0x3c8f58d1	0.017498406
198	0x3d8a6927	0.067583375
199	0x3e1ec52f	0.15504907
200	0xbd8fbb23	-0.07018115
201	0x3b31b365	0.0027114984
202	0x3e184a40	0.14872074
203	0x3dcc103a	0.099640325
204	0x3d590690	0.052984774
205	0xbddff9c2	-0.109363094
206	0xbe08b108	-0.13348782
207	0xbe293c4c	-0.16526908
208	0xbdfa72b5	-0.1222891
209	0x3cd3a510	0.025835544
210	0x3de22e29	0.110439606
211	0x3de836d7	0.11338585
212	0xbd9530da	-0.07284708
213	0xbc4f36e6	-0.012647366
214	0x3d9ad242	0.07559635
215	0x3e1c6f1c	0.1527676
216	0x3d74d249	0.059770856
217	0x3b33ac19	0.002741581
218	0x3dcc0fab	0.09963926
219	0x3be25402	0.006906987
220	0xbd6d5225	-0.057939667
221	0x3dedd595	0.11613003
222	0xbcfb046f	-0.030641763
223	0x3b7701e9	0.0037690348
224	0xbdd7a9b8	-0.10530418
225	0x3da1ce21	0.07900644
226	0x3db648a0	0.08900571
227	0x3d12f163	0.035874736
228	0xbdcdaf42	-0.100431934
229	0xbe0979bd	-0.13425346
230	0xbdf88767	-0.12135201
231	0x3d8ee65a	0.0697753
232	0x3d22347e	0.03960084
233	0x3da204e9	0.07911093
234	0x3da2e43c	0.079536885
235	0x3d8df7af	0.069320075
236	0x3d2fd6a9	0.042929325
237	0xbd6d0d06	-0.05787375
238	0xbd7f157b	-0.062276345
239	0x3ba46972	0.005017453
240	0x3dab727b	0.08371445
241	0xbc8e0b0e	-0.017339256
242	0x3c80ddab	0.0157307
243	0xbc728cc6	-0.014804071
244	0xbcf38f1f	-0.029731331
245	0xbcd0de15	-0.025496522
246	0x3c3d2054	0.011543352
247	0x3e0da0ff	0.13830946
248	0x3db0ed3a	0.086389974
249	0x3c35fdd4	0.011107881
250	0xbdc5ae6e	-0.096524104
251	0xbe2e8e21	-0.17046405
252	0xbdc9eef5	-0.098600306
253	0xbe2b6ce4	-0.16740757
254	0xbc2bb785	-0.010480766
255	0xbda1299a	-0.07869263

lstm.weight_hh_l0 f4 [256, 64]
0	0xbd84390f	-0.064561956
1	0xbd060691	-0.032721106
2	0x3bd6224d	0.0065348507
3	0xbd9bf7b2	-0.076156035
4	0xbde9eb03	-0.11421778
5	0x3df2f273	0.1186265
6	0x3db6fecc	0.089353174
7	0xbdecfdbd	-0.11571834
8	0x3d58b09c	0.052902803
9	0x3d1177ec	0.035514757
10	0x3e1619b7	0.14658247
11	0x3dc66915	0.096880116
12	0x3d9f6c5e	0.07784341
13	0xbdd147f7	-0.10218804
14	0x3dc73633	0.097271346
15	0x3d9501b5	0.07275716
16	0xbdd96f6f	-0.106169574
17	0xbe03fa3d	-0.12888427
18	0xbb771317	-0.0037700587
19	0x3d0c0dc2	0.034192808
20	0xbccaf13e	-0.024773236
21	0x3d0a16a1	0.033712987
22	0xbd4ce67d	-0.0500245
23	0x3bacbf94	0.0052718613
24	0xbd2a54c2	-0.041584738
25	0x3dcc084b	0.09962519
26	0x3dad1d52	0.08452858
27	0xbda7cdc3	-0.08193543
28	0x3ca19aaa	0.01972707
29	0xbd57995e	-0.052636497
30	0x3d91692c	0.07100138
31	0x3d877d67	0.066157155
32	0x3cef1450	0.02918449
33	0xbc24c0ec	-0.010055762
34	0x3dfb69e7	0.12276059
35	0xbd4950ef	-0.04914945
36	0xbc96f6b2	-0.01842818
37	0x3cd91f3b	0.02650415
38	0xbd6f0d3e	-0.058362238
39	0x3d3129d3	0.043252777
40	0xbdce455f	-0.10071825
41	0x3d0c4bf5	0.034252126
42	0x3c164a69	0.009173014
43	0x3d030bf9	0.03199384
44	0xbd967247	-0.073460154
45	0xbda9418c	-0.08264455
46	0x3d40b767	0.047049906
47	0x3de816ba	0.1133246
48	0xbdb1fa03	-0.08690264
49	0x3d9be13b	0.07611319
50	0xbd8e0f63	-0.069365285
51	0x3bdbdc80	0.0067096353
52	0x3e10b4a8	0.14131415
53	0x3d8e5f5a	0.069517806
54	0xbd5f2977	-0.054482903
55	0x3d98b4f2	0.074563876
56	0x3d553be4	0.05205907
57	0x3d8ab643	0.06773045
58	0x3ddae060	0.106873274
59	0xbd8fab7f	-0.07015132
60	0xbc6fe815	-0.014642735
61	0xbd9cc2a8	-0.07654315
62	0xbbcb46c2	-0.0062035033
63	0x3d9af293	0.075657986
64	0x3de8ae9d	0.1136143
65	0xbd34441e	-0.044010274
66	0xbd8a4095	-0.06750599
67	0xba97a262	-0.001156878
68	0xbe005e94	-0.12536079
69	0x3da41038	0.08010906
70	0x3d2397b9	0.039939616
71	0xbdb61967	-0.08891564
72	0x3d945fee	0.0724486
73	0x3c58378a	0.013196835
74	0x3d81f14c	0.06344852
75	0xbc854e02	-0.016272549
76	0xbe287b96	-0.16453394
77	0x3d582f4b	0.052779477
78	0xbc0f3ca8	-0.008742489
79	0xbd1c95eb	-0.03822891
80	0xbe04945e	-0.12947223
81	0x3e680bfb	0.2266082
82	0xbe57008a	-0.209963
83	0xbd1af722	-0.03783334
84	0x3de820ba	0.11334367
85	0xbe26c9ff	-0.16287993
86	0xbe2c11c1	-0.16803648
87	0xbe2b4220	-0.16724443
88	0x3e8e0029	0.27734497
89	0x3e03aae6	0.12858161
90	0x3d1cb065	0.03825416
91	0x3e06e73f	0.13174151
92	0x3d407171	0.046983186
93	0xbe99f5cf	-0.3007035
94	0x3bd1a529	0.0063978625
95	0xbde6935b	-0.112585746
96	0x3ddf25dd	0.10895894
97	0x3d84a4a2	0.06476714
98	0x3dc609b5	0.0966982
99	0x3d529e05	0.05142023
100	0x3de8799d	0.11351321
101	0xbd9686df	-0.07349943
102	0x3e86c34f	0.26320884
103	0xbc93e243	-0.018052226
104	0x3e0d93f9	0.13825978
105	0xbd1a1cd0	-0.037625134
106	0x3d087f85	0.033324737
107	0xbc21367a	-0.009839648
108	0xbb8aa354	-0.004230896
109	0xbd3ef9e3	-0.04662503
110	0xbdf13727	-0.117780976
111	0x3d0a682a	0.033790745
112	0x3e04133a	0.1289796
113	0xbb0f94f5	-0.0021908854
114	0x3d453151	0.048142735
115	0x3e11b003	0.142273
116	0xbb538153	-0.0032273128
117	0x3cb8b881	0.022548916
118	0xbe1152d9	-0.1419176
119	0xbdc6cced	-0.09707055
120	0xbe5efc84	-0.21776015
121	0xbbe1a71a	-0.006886375
122	0xbd249a2b	-0.04018609
123	0xbc3c55c5	-0.011495058
124	0x3e166935	0.14688571
125	0xbc26327c	-0.010143872
126	0xbdaa0f3d	-0.08303688
127	0x3d791d8c	0.060819194
128	0xbd4a9674	-0.04945989
129	0xbc8ce3f5	-0.017198542
130	0xbbc84b0b	-0.0061124614
131	0x3ce07659	0.027400183
132	0xbcbf88ff	-0.023380755
133	0xbd24d54d	-0.040242482
134	0xbcd2cb9f	-0.02573186
135	0xbceccce3	-0.028906291
136	0xbd844cbb	-0.06459948
137	0xbb403c6d	-0.0029332892
138	0x3b30d968	0.0026985053
139	0x3d93b5bd	0.07212398
140	0x3d893b3d	0.06700752
141	0x3d55b5f4	0.052175477
142	0x3ca2e9fc	0.019886963
143	0xbdfdb638	-0.12388271
144	0x3d8b325e	0.06796716
145	0xbd9a8cf8	-0.07546419
146	0xbd2dd4ad	-0.04243915
147	0xbd57e053	-0.052704167
148	0xbcc71cc5	-0.02430571
149	0xbb377e9c	-0.002799905
150	0x3d9354dc	0.0719392
151	0x3d477a59	0.048700664
152	0x3db844fc	0.08997533
153	0x3e437825	0.190888
154	0xbdd933cd	-0.10605583
155	0x3d274865	0.040840525
156	0x3dc1eae3	0.09468629
157	0x3d4a92d0	0.049456418
158	0xbda5b853	-0.08091798
159	0x3c2423b3	0.010018277
160	0xbdbe84e7	-0.09302693
161	0x3ccdd104	0.02512408
162	0xbba35ae9	-0.0049852026
163	0xbdaa79d7	-0.0832402
164	0xbdcc66ee	-0.0998057
165	0xbd8b309d	-0.067963816
166	0x3de7b200	0.11313248
167	0x3dd83747	0.10557418
168	0xbe0bdde7	-0.13658868
169	0x3d011a00	0.031518936
170	0x3d1fefc8	0.039047033
171	0xbdb14661	-0.08656002
172	0x3dcbaf26	0.09945516
173	0x3e18d089	0.149233
174	0x3bcfeac5	0.0063451254
175	0xbda37775	-0.07981769
176	0x3d66bbf3	0.056331586
177	0x3d68e99a	0.056863405
178	0x3e2591d8	0.16168916
179	0xbd918993	-0.07106318
180	0xbdc3b08b	-0.09555157
181	0x3cef5c3b	0.029218784
182	0x3ca6548c	0.020303987
183	0xbd639bcf	-0.055568513
184	0xbd303949	-0.04302338
185	0x3cc7f591	0.024409087
186	0x3dbee41b	0.093208514
187	0xbd372d89	-0.04472116
188	0x3e2b9c08	0.1675874
189	0x3df87d7b	0.121333085
190	0xbc69c574	-0.014268268
191	0x3d807908	0.06273085
192	0x3d371edf	0.044707175
193	0x3c4f5d66	0.012656545
194	0xbda19485	-0.07889656
195	0x3cd82863	0.026386445
196	0xbda8258b	-0.08210286
197	0x3de02754	0.10945001
198	0x3cb5d481	0.022196056
199	0xbdf40f50	-0.11916983
200	0x3a3b389e	0.00071419205
201	0x3cf2a77b	0.029620877
202	0xbd7a8097	-0.06115779
203	0xbc879187	-0.016548885
204	0x3d20fef1	0.03930563
205	0xbdae65a8	-0.08515483
206	0x3df86927	0.12129431
207	0x3d12ba99	0.035822485
208	0xbd6630d2	-0.056198902
209	0x3e111f65	0.14172132
210	0xbdc1cc5b	-0.09462806
211	0xbdef57f9	-0.11686701
212	0xbd43a761	-0.047767047
213	0xbc852352	-0.016252194
214	0xbe34d094	-0.17657691
215	0xbe10d2f3	-0.1414297
216	0xbd7ef7cf	-0.062248047
217	0x3df700be	0.120606884
218	0x3de06c1a	0.10958119
219	0x3e626a40	0.22110844
220	0x3e268bc1	0.1626425
221	0xbd66070d	-0.056159068
222	0x3b69099a	0.0035558701
223	0xbe16cfc5	-0.14727695
224	0xbc7c4e38	-0.015399508
225	0xbd8f75d5	-0.070048966
226	0x3dfcb791	0.123397
227	0x3d8e9b77	0.06963246
228	0x3dd4bd00	0.103876114
229	0x3dc8cb87	0.09804445
230	0xbbd088cb	-0.0063639632
231	0x3e312511	0.17299296
232	0x3d14ca3f	0.03632569
233	0x3e5d6662	0.21621087
234	0x3d6f21b5	0.058381755
235	0x3dc72dc8	0.09725529
236	0x3d70613c	0.05868648
237	0x3da3a11b	0.07989713
238	0x3c41ed21	0.011836321
239	0xbc391f50	-0.011298969
240	0x3e27af9a	0.1637558
241	0x3dd304fe	0.103036866
242	0x3e3fbdf2	0.18724802
243	0x3de16ea9	0.11007435
244	0x3d32f30e	0.043688826
245	0xbdc38b25	-0.09548024
246	0x3d9c8af6	0.07643692
247	0xbb5d1302	-0.0033733253
248	0x3d6c3543	0.05766798
249	0x3dc41461	0.095741995
250	0x3d88199f	0.06645512
251	0x3c309e51	0.010779933
252	0x3ca81478	0.020517573
253	0x3d550331	0.052004997
254	0xbdbe8e89	-0.0930453
255	0x3cacecd3	0.02110902

lstm.bias_ih_l0 f4 [256]
0	0x3d230b83	0.0398059
1	0x3cc61edb	0.024184635
2	0x3e28d909	0.16489042
3	0x3e4e49ab	0.2014529
4	0x3cda2354	0.026628174
5	0x3d940c32	0.072288886
6	0x3e03490b	0.12820832
7	0xbd9f535a	-0.0777957
8	0x3d9ab842	0.07554676
9	0x3e205ffe	0.15661618
10	0x3de1ba74	0.11021891
11	0xbcc11f86	-0.023574602
12	0x3dc920bf	0.09820699
13	0x3d2295f4	0.039693788
14	0x3d2062e5	0.039156813
15	0x3e2560b7	0.16150175
16	0x3dd5bf65	0.10436896
17	0x3e884242	0.2661305
18	0x3d2ca4ec	0.04214947
19	0xbd11b791	-0.035575453
20	0x3e25a8ef	0.16177724
21	0xbc020849	-0.007936546
22	0x3c8fe49d	0.017565066
23	0xbc39a54c	-0.011330914
24	0x3e08f5c4	0.13375002
25	0x3ca9a182	0.020706896
26	0x3caf4a66	0.02139778
27	0xbcd96508	-0.026537433
28	0x3dd9dcda	0.10637827
29	0xbde93d0d	-0.11388598
30	0xbd7e7429	-0.062122498
31	0xbd9fd5a0	-0.078044176
32	0xbcc67db4	-0.024229862
33	0xbd9d4f87	-0.07681184
34	0x3ced2461	0.02894801
35	0x3dc3a0ba	0.095521405
36	0x3c927407	0.017877592
37	0x3d3b976d	0.045798708
38	0x3c9eb219	0.019372033
39	0xbdbba6b4	-0.091626555
40	0x3cc1465d	0.023593122
41	0x3db51eff	0.08843803
42	0x3e682e5c	0.22673935
43	0x3d952747	0.07282882
44	0x3c5fcb32	0.013659285
45	0x3dcda757	0.10041683
46	0x3d8d6c84	0.06905463
47	0x3e24bfc0	0.16088772
48	0x3ddc0d50	0.10744727
49	0x3e1aa395	0.15101464
50	0x3d046ac4	0.032328382
51	0x3d97b203	0.07407
52	0xbdb26593	-0.0871078
53	0x3e4c6259	0.19959392
54	0xbbaddef0	-0.0053061172
55	0x3e55cca9	0.20878853
56	0x3c06ad7a	0.008220071
57	0xbd90654e	-0.07050572
58	0x3da0b81d	0.07847617
59	0x3def1d24	0.1167548
60	0x3ceed253	0.029153025
61	0x3dd76ede	0.10519193
62	0xbc7a61f0	-0.015282139
63	0x3e0584f8	0.13039005
64	0xbd9faa47	-0.0779615
65	0xbe1e2146	-0.1544238
66	0x3dcd4d72	0.10024537
67	0xbe3071f6	-0.17230973
68	0xbe2af981	-0.1669674
69	0xbd2edf2c	-0.042693302
70	0x3c9f6080	0.019455194
71	0x3c6de164	0.014519069
72	0xbddd318a	-0.108004645
73	0xbe0a5edd	-0.1351275
74	0xbb2cf91c	-0.0026393598
75	0xbdf11b61	-0.117728
76	0x3c42451c	0.011857297
77	0xbc897ae4	-0.016782232
78	0xbd4c3a6d	-0.049860407
79	0xbe0059f5	-0.12534316
80	0x3db70f8a	0.08938511
81	0xbe565bf3	-0.20933513
82	0xbded6316	-0.11591165
83	0x3d31fd5f	0.043454524
84	0x3c0a7d5d	0.0084527405
85	0xbd9ec16f	-0.07751738
86	0x3def33f0	0.11679828
87	0xbd867953	-0.065661095
88	0xbda67fa2	-0.08129813
89	0xbe16a986	-0.14713106
90	0xbd828c23	-0.06374385
91	0xbde00b2e	-0.10939632
92	0x3b98bd0c	0.004661208
93	0xbcfcdd35	-0.030867198
94	0x3dada24b	0.084782206
95	0xbdc384df	-0.095468275
96	0x3d474173	0.0486464
97	0x3db4a79a	0.0882103
98	0xbd89ab86	-0.067221686
99	0xbdd7a49d	-0.10529444
100	0x3d156f1a	0.036482908
101	0xbe08ccb5	-0.1335934
102	0x3d3789ce	0.044809155
103	0x3d630bc8	0.055431157
104	0xbd22d3f8	-0.03975293
105	0xbde6e78d	-0.112746336
106	0xbdb2ad35	-0.08724443
107	0x3d7ab13c	0.06120418
108	0x3d20cbb4	0.039256766
109	0x3cb3c819	0.021946
110	0x3d15cde9	0.036573324
111	0xbc58c1b2	-0.013229774
112	0xbb9107b5	-0.0044259676
113	0xbda45da0	-0.0802567
114	0xbd5375ea	-0.051626123
115	0xbdd373f1	-0.103248484
116	0x3d18ed71	0.037335817
117	0xbdd74ffc	-0.10513303
118	0x3d93bdfd	0.07213972
119	0xbd9bafc4	-0.07601884
120	0xbe192656	-0.1495603
121	0xbda34508	-0.07972151
122	0xbdb1097c	-0.08644387
123	0xbd988422	-0.07447077
124	0xbd57640b	-0.052585643
125	0xbdf180d1	-0.11792148
126	0x3d61164d	0.05495291
127	0x3d0c18bd	0.03420328
128	0xbbbe74da	-0.0058122696
129	0xbd84cf6f	-0.06484877
130	0xbdc7a731	-0.09748686
131	0xbdba4232	-0.09094657
132	0xbd37f8d3	-0.04491503
133	0x3d95ae85	0.073086776
134	0x3c4a1554	0.012334187
135	0xbd288c17	-0.041149225
136	0x3c48507e	0.012226222
137	0x3cf97e6c	0.03045579
138	0x3d0553c2	0.03255058
139	0x3d1472d7	0.036242332
140	0x3d57b3db	0.052661758
141	0xbcdd3a69	-0.027005391
142	0xbd11dd3a	-0.03561137
143	0xbda795c1	-0.0818286
144	0xbd600c88	-0.05469945
145	0xbdb79712	-0.08964361
146	0x3b6d031b	0.003616518
147	0xbd6f11e3	-0.058366667
148	0xbcc62402	-0.024187092
149	0x3db080f9	0.086183496
150	0x3de9d63f	0.11417817
151	0x3cf57e5a	0.029967476
152	0x3d22b7b0	0.03972596
153	0x3cfe2227	0.031022144
154	0xbd1b08e7	-0.037850287
155	0xbc72847a	-0.014802093
156	0x3bc8d260	0.0061285943
157	0xbd962cb2	-0.07332744
158	0x3de31c7f	0.110894196
159	0xbd5ffa02	-0.054681785
160	0x3c39d51d	0.011342314
161	0xbdd308a8	-0.103043854
162	0xbdb7cc17	-0.08974474
163	0x3e0f6fcd	0.14007492
164	0xbcff04d6	-0.031130236
165	0x3c9f034c	0.019410752
166	0x3adc001a	0.0016784698
167	0x3d3b014a	0.045655526
168	0x3cab3ac9	0.020902054
169	0x3c01bf21	0.007919104
170	0xbd7ef096	-0.06224116
171	0x3cd5a796	0.026080888
172	0x3ca28ae8	0.019841626
173	0xbdcbfce3	-0.09960344
174	0xbdaaedfa	-0.08346172
175	0xbccb6899	-0.02483015
176	0x3d697184	0.056993023
177	0x3d1e692f	0.03867453
178	0x3d33e19f	0.04391634
179	0x3dabc64e	0.08387433
180	0xbb6b1929	-0.003587315
181	0xbdc0e684	-0.09418967
182	0x3de04506	0.10950665
183	0x3b9cdc28	0.004786987
184	0xbd3e527a	-0.046465375
185	0x3c308495	0.0107737975
186	0xbd8feb82	-0.070273414
187	0x3cad90ad	0.02118715
188	0x3dd1aa77	0.10237592
189	0x3c06d5ce	0.008229686
190	0xbdb05b36	-0.08611147
191	0x3ddc58f3	0.10759153
192	0x3db1f07d	0.086884476
193	0x3da0cbdc	0.07851383
194	0x3e1d71d5	0.15375455
195	0x3e649558	0.22322595
196	0x3dad803f	0.084717266
197	0x3dc36707	0.09541135
198	0x3afe869e	0.0019418781
199	0xbd74cfad	-0.059768368
200	0x3dc8995b	0.09794875
201	0x3d833dc5	0.06408266
202	0x3e4e94ca	0.20173946
203	0x3d9d9f13	0.076963566
204	0xbd4c454d	-0.049870778
205	0x3dd67321	0.10471178
206	0x3dd8ab3e	0.10579537
207	0x3e1dcc45	0.15409954
208	0x3c5cbe69	0.013473132
209	0x3e258786	0.1616498
210	0x3db8234d	0.08991108
211	0x3d9c7acd	0.0764061
212	0x3dc39cf9	0.095514245
213	0x3e34913f	0.17633532
214	0xbd2b9f5a	-0.041900016
215	0x3d8ed639	0.069744535
216	0x3a6c9227	0.0009024464
217	0x3e2ecab6	0.17069516
218	0x3e05badc	0.13059562
219	0xbd51da88	-0.0512338
220	0xbdcdc79d	-0.10047839
221	0xbc21e673	-0.0098816035
222	0x3dd59b2a	0.10429986
223	0x3b42e95d	0.0029741146
224	0x3d9bbcce	0.07604371
225	0xbd87680b	-0.066116415
226	0xbd22590d	-0.039635707
227	0xbda8e767	-0.082472615
228	0xbdb37523	-0.087625764
229	0xbca23cdb	-0.019804409
230	0xbb71f6a4	-0.003692069
231	0x3d50782f	0.050895866
232	0x3e186dd7	0.1488565
233	0x3bddf933	0.0067740916
234	0x3e851f27	0.2600033
235	0xbcf9619d	-0.030442053
236	0xb88d5a10	-6.7401794e-05
237	0xbdbe848c	-0.09302625
238	0x3dc941c4	0.09826997
239	0x3e1ce570	0.15321898
240	0xbcb3caa9	-0.021947222
241	0xbcde1885	-0.027111301
242	0x3da4f0be	0.080537304
243	0xbda2f6fb	-0.07957264
244	0x3dfa80ea	0.1223162
245	0xbca655fd	-0.020304674
246	0x3da05f00	0.0783062
247	0x3eb34552	0.35013825
248	0xbda34c11	-0.07973493
249	0x3dc4d3e5	0.09610728
250	0x3e93a7e3	0.28839025
251	0x3dc2806a	0.09497149
252	0x3e207cf1	0.15672661
253	0x3c3f4de3	0.0116762845
254	0xbd2fd80f	-0.04293066
255	0x3e03feaa	0.12890115

lstm.bias_hh_l0 f4 [256]
0	0x3df06b70	0.11739242
1	0x3d10d511	0.035359446
2	0x3e32e2a9	0.17469276
3	0x3e0d2a0f	0.13785575
4	0xbcdee24c	-0.027207516
5	0x3d4c0c45	0.04981639
6	0x3e45c5a6	0.19313678
7	0xbce5edc4	-0.028067477
8	0x3c783bc1	0.015150965
9	0x3d4f6c26	0.050640248
10	0x3d6b10e3	0.05738915
11	0x3d8e8c42	0.06960346
12	0x3db4792e	0.08812176
13	0xbd923df1	-0.07140721
14	0x3c7487ce	0.0149249565
15	0x3ea2e0f6	0.31812257
16	0xbd0ac062	-0.033874877
17	0x3ebd334e	0.36953205
18	0xbd8b91fd	-0.068149544
19	0x3d58f839	0.0529711
20	0x3e060eb9	0.13091554
21	0x3e00814a	0.1254932
22	0x3ddfb2c6	0.1092277
23	0x3dbb1bed	0.09136186
24	0x3c5f7834	0.0136394985
25	0x3e244900	0.16043472
26	0xbc09ca8d	-0.008410108
27	0x3db2796d	0.087145664
28	0x3e06de5f	0.13170765
29	0xbdee201f	-0.1162722
30	0x3dd4bb97	0.103873424
31	0x3d98bc36	0.074577734
32	0xbda8aba2	-0.08235861
33	0xbd1deb8f	-0.038554724
34	0x3c6a9cd0	0.014319614
35	0x3e282dae	0.16423675
36	0x3da7c1bb	0.08191248
37	0x39f962c9	0.00047566582
38	0xbcef4bc3	-0.02921093
39	0xbda99d74	-0.08281985
40	0xbca6c3f1	-0.020357104
41	0xbc84322d	-0.016137207
42	0x3dc1e466	0.09467392
43	0xbd7a8d0d	-0.061169673
44	0xbce0a148	-0.027420655
45	0x3d50709c	0.050888643
46	0x3cf870e2	0.030327264
47	0x3e2f1154	0.17096454
48	0x3dfbe27c	0.12299058
49	0x3e2fc401	0.17164613
50	0xbc987f28	-0.01861532
51	0x3db71641	0.089397915
52	0xbcce9abc	-0.025220267
53	0x3e6c8460	0.23097372
54	0x3c41cccf	0.011828615
55	0x3e3d94af	0.1851375
56	0xbc075bea	-0.00826166
57	0xbd3d60c1	-0.04623485
58	0x3e15e62a	0.14638582
59	0xbbad1c14	-0.005282888
60	0x3d838dcd	0.06423531
61	0x3d2f4b6a	0.04279653
62	0xbe0262e1	-0.12733032
63	0xbddfb585	-0.10923294
64	0xbde0c29e	-0.1097462
65	0xbe53b472	-0.20674303
66	0xbe138ff5	-0.14410384
67	0x3d042d20	0.032269597
68	0x3cefd2e1	0.02927536
69	0x3d1338a4	0.03594269
70	0x3cefbace	0.02926388
71	0xbb5794ff	-0.0032895205
72	0xbd860ddc	-0.06545612
73	0xbd5c9419	-0.053852174
74	0xbdc0d860	-0.0941627
75	0x3ca83b4c	0.020536087
76	0xbccf0e4d	-0.025275374
77	0xbdbf6946	-0.09346251
78	0x3ca542b2	0.020173404
79	0xbe4be36d	-0.19910975
80	0x3da72976	0.08162205
81	0xbdf6f0d8	-0.12057656
82	0xbcb30642	-0.02185357
83	0xbda6096e	-0.08107267
84	0xbccc799b	-0.02496033
85	0xbd1a110c	-0.037613913
86	0x3d96c866	0.07362442
87	0xbdfc094e	-0.12306462
88	0xbda745d4	-0.081676155
89	0xbe0e8429	-0.13917603
90	0xbda28dcd	-0.079372026
91	0xbdde09ac	-0.108416885
92	0xbe048283	-0.12940411
93	0x3deb44cf	0.114877336
94	0xbdfd5e8f	-0.12371551
95	0xbd8a6feb	-0.06759628
96	0xbc9a56bb	-0.018840184
97	0xbd821cd3	-0.06353154
98	0xbd9650a1	-0.073395975
99	0x3cbcf7da	0.023067404
100	0xbd5f23d4	-0.054477528
101	0xbcf0ad23	-0.029379433
102	0x3d943b05	0.072378196
103	0xbdaedf97	-0.0853874
104	0xbd1b9b54	-0.03798993
105	0x3d35418d	0.044251967
106	0xbe07a272	-0.13245562
107	0xbe040fa6	-0.12896594
108	0x3df34230	0.11877859
109	0xbddf9127	-0.109163575
110	0xbe107f51	-0.14111067
111	0xbe17ab2b	-0.14811389
112	0xbc77b12b	-0.015117924
113	0x3db6946a	0.089150265
114	0xbe1c5d58	-0.15269983
115	0xbde5b3b5	-0.11215917
116	0x3db2e5fe	0.08735274
117	0x3d686028	0.056732327
118	0x3c276f57	0.010219417
119	0xbe701330	-0.2344482
120	0x3d343e0b	0.04400448
121	0xbd109ca9	-0.035305653
122	0xbe27a8af	-0.16372941
123	0x3d8307c0	0.063979626
124	0xbe091d8e	-0.1339018
125	0xbcfb3c7c	-0.03066849
126	0xbdcee448	-0.10102135
127	0x3daa6e8a	0.08321865
128	0x3c22918f	0.009922399
129	0xbd262685	-0.04056408
130	0x3d8c02a5	0.06836442
131	0x3dc23e50	0.094845414
132	0x3c6b4360	0.014359325
133	0x3d259899	0.04042873
134	0xbd04d4f3	-0.032429647
135	0xbd190463	-0.0373577
136	0xbd3b56a9	-0.045736942
137	0xbdad5686	-0.08463769
138	0x3de6e2c7	0.11273723
139	0x3cd907f6	0.026493054
140	0xbde96a9e	-0.11397289
141	0xbd95c647	-0.07313209
142	0x3d8f04ea	0.06983359
143	0x3d00a3ff	0.0314064
144	0xbdc2f33b	-0.09519049
145	0x3bff0b06	0.0077832965
146	0xbcfde314	-0.030992068
147	0x3d0921dc	0.033479556
148	0xbd07721d	-0.03306781
149	0xbdb6d07d	-0.08926485
150	0xbd93f8f7	-0.07225221
151	0xbd1b463e	-0.037908785
152	0xbcb33360	-0.021875083
153	0x3c359568	0.0110829845
154	0xbc88f803	-0.016719824
155	0x3d23f06f	0.040024217
156	0xbcc8d703	-0.024516588
157	0xbc89202f	-0.01673898
158	0xbd82aa3b	-0.06380125
159	0xbd8f01ef	-0.06982791
160	0xbce526cf	-0.027972607
161	0xbccce9ba	-0.025013793
162	0x3dd0f025	0.10202054
163	0xbdd98023	-0.10620143
164	0x3d976422	0.07392146
165	0x3d360a00	0.04444313
166	0x3d09d98d	0.03365474
167	0x3c6c0b30	0.014406964
168	0x3d7d74b8	0.06187889
169	0x3de48d79	0.11159796
170	0x3d29a701	0.041419033
171	0xbcbb3718	-0.02285342
172	0x3d24e22b	0.040254753
173	0xbcbb050d	-0.022829557
174	0xbd5b70c3	-0.053574335
175	0x3d999a4a	0.075001314
176	0x3d986da8	0.0744279
177	0x3da98821	0.08277918
178	0xbda3bf9f	-0.07995533
179	0xbc2c30d2	-0.010509687
180	0x3d3a7c00	0.045528412
181	0x3d701f91	0.058623854
182	0xbdf3e7ac	-0.11909422
183	0x3a9e29e1	0.0012066924
184	0xbc8532c3	-0.016259557
185	0x3da4ad81	0.08040906
186	0x3d593095	0.053024847
187	0xbd2110f5	-0.039322812
188	0xbd5b42a2	-0.053530343
189	0x3d8d4abe	0.068990216
190	0xbbc27ad5	-0.005935053
191	0x3cb2dd01	0.021833898
192	0x3e2da0c1	0.16955854
193	0x3abd6673	0.0014450088
194	0x3d3917b5	0.045188624
195	0x3d614409	0.054996524
196	0xbcd74996	-0.026280206
197	0x3da41649	0.08012063
198	0x3d937ffd	0.07202146
199	0x3dbd7c15	0.092521824
200	0xbd9d7a1b	-0.076893054
201	0x3e028ef5	0.12749846
202	0x3d3bdb1a	0.04586325
203	0x3dc46477	0.09589475
204	0x3d1c57a7	0.03816953
205	0x3e0e041e	0.13868758
206	0x3d5b2a00	0.05350685
207	0x3ea268ee	0.3172068
208	0xbdb5585f	-0.08854746
209	0x3e8f44f7	0.27982304
210	0x3df7a99f	0.120928995
211	0xbdaf2ab7	-0.08553069
212	0x3e198ad3	0.14994363
213	0x3e142852	0.14468506
214	0xbcd2eb54	-0.025746979
215	0xbbf36ccb	-0.0074287406
216	0x3de473d2	0.111549035
217	0x3d180741	0.037116293
218	0x3dd15e66	0.10223083
219	0x3c053e72	0.008132564
220	0x3dfa86ef	0.12232768
221	0xbdbb8e87	-0.09158044
222	0xbc328a23	-0.010897192
223	0x3dad67d6	0.08467071
224	0xbd008c89	-0.031384025
225	0xbc1d3062	-0.009594055
226	0x3c83dac5	0.016095528
227	0x3e16f51a	0.14741936
228	0x3d993caf	0.074822776
229	0xbdadeb17	-0.084921055
230	0x3dad1d25	0.084528245
231	0x3dddb23d	0.10825012
232	0x3ddedace	0.108815774
233	0x3dd6f5bf	0.10496091
234	0x3e3d4e90	0.18487
235	0x3d7d5af3	0.061854314
236	0x3e347584	0.17622954
237	0x3e0e4fda	0.13897648
238	0xbd6353e0	-0.05549991
239	0x3e2a32aa	0.1662089
240	0x3c8e6751	0.01738325
241	0x3e4a26de	0.19741389
242	0x3b116cb7	0.0022190043
243	0x3ce27c4a	0.027647156
244	0x3dac2186	0.084048316
245	0x3d9ec856	0.07753055
246	0xbbee81e7	-0.007278669
247	0x3ec20d76	0.37900895
248	0xbccdbb9d	-0.025113875
249	0x3da61713	0.0810987
250	0x3e0f9acc	0.14023894
251	0xbdece020	-0.11566186
252	0xbd30e7e3	-0.043189894
253	0x3dd152c3	0.10220864
254	0x3d8c555d	0.06852219
255	0xba59ad95	-0.0008303759

lstm.weight_ih_l1 f4 [256, 64]
0	0x3e050767	0.12991105
1	0xbd0a108c	-0.033707187
2	0x3dda9a80	0.10674
3	0x3d92aac6	0.07161479
4	0x3cfe8f9f	0.031074343
5	0x3dc7b8ec	0.09752068
6	0xbc862ac7	-0.01637782
7	0xbe08e5d1	-0.13368918
8	0x3e0bfc1e	0.13670394
9	0x3da1a011	0.07891858
10	0x3dce25ee	0.10065828
11	0x3d9d7661	0.076885946
12	0xbe19695e	-0.149816
13	0x3d17523c	0.03694366
14	0xbc31ae37	-0.010844759
15	0xbd611bc3	-0.054958116
16	0x3e3cff31	0.18456723
17	0xbe2b9d66	-0.16759261
18	0xbe26d292	-0.16291264
19	0xbccd8ab0	-0.025090545
20	0x3e0b616d	0.13611384
21	0xbe2bf583	-0.16792874
22	0x3ce0a973	0.02742455
23	0xbd6985e9	-0.057012472
24	0xbc7e5f45	-0.015525644
25	0xbc63f72a	-0.013913909
26	0x3dc36733	0.09541168
27	0x3cd156f7	0.025554163
28	0xbd737a07	-0.059442546
29	0x3db03d3b	0.08605429
30	0xbd547f92	-0.051879473
31	0xbded0c76	-0.11574642
32	0xbc46d9bc	-0.012136873
33	0x3e1fbbd6	0.15598997
34	0x3d958e4f	0.07302534
35	0xbc74ff54	-0.014953453
36	0xbda892e6	-0.08231144
37	0x3d982498	0.07428855
38	0xbcc6b1a7	-0.024254633
39	0x3deaf658	0.114727676
40	0x3d92da76	0.07170574
41	0xbd90e786	-0.070754096
42	0xbcac7ad7	-0.021054668
43	0x3e331689	0.17489065
44	0xbd3f2d33	-0.046673965
45	0x3cdded02	0.027090553
46	0xbddc097f	-0.10743999
47	0x3d8af93a	0.067858174
48	0xbd2868c4	-0.041115537
49	0xbdbdb9d3	-0.09263959
50	0xbe1040ee	-0.14087269
51	0xbceecd16	-0.029150527
52	0x3c96e227	0.018418385
53	0x3af44b51	0.0018638169
54	0x3dd5999a	0.10429688
55	0xbe4b16fd	-0.19832988
56	0xbd4ed320	-0.050494313
57	0x3dc063f2	0.09394063
58	0xbd9e1aac	-0.07719931
59	0x3d32ebc6	0.043681882
60	0xbe391083	-0.18072705
61	0x3cb9b52f	0.022669403
62	0x3cc6ba0b	0.024258634
63	0xbe1d4750	-0.15359235
64	0xbdd0362c	-0.101665825
65	0x3e36039a	0.17774811
66	0xbd2d70c2	-0.042343862
67	0x3e3ac171	0.18237855
68	0x3da09767	0.07841378
69	0xbe0eaba9	-0.1393267
70	0xbe4e566a	-0.20150152
71	0x3e4ab3aa	0.19795099
72	0xbcc5666d	-0.024096692
73	0x3e1f0f3a	0.15533152
74	0xbe2c5c9d	-0.16832204
75	0xbe2565ef	-0.16152166
76	0x3de39ba0	0.111136675
77	0x3e1ae342	0.15125754
78	0x3da8c677	0.08240979
79	0x3e409a2a	0.18808809
80	0xba8dce22	-0.0010818879
81	0x3e30aaad	0.17252608
82	0x3d10b320	0.035327077
83	0x3e4ae40a	0.19813552
84	0xbd51cca1	-0.05122054
85	0x3e4ebbc8	0.2018882
86	0xbd9629be	-0.073321804
87	0x3de29685	0.110638656
88	0x3c3f3ede	0.011672704
89	0x3e42ac7a	0.19011107
90	0xbc53483b	-0.012895639
91	0xbd6457e8	-0.055747896
92	0xbc41b22b	-0.011822264
93	0xbd273e46	-0.040830873
94	0x3a3674f4	0.00069601764
95	0x3e02380d	0.12716694
96	0xbc0cbcf6	-0.008589974
97	0xbd63e99f	-0.05564272
98	0xbdaa07de	-0.08302282
99	0xbe06979e	-0.13143775
100	0xbe21d79d	-0.15804906
101	0xbe5c9351	-0.21540572
102	0xbd5cf591	-0.053945128
103	0xbdd3bcac	-0.10338721
104	0x3e3429da	0.1759409
105	0x3db3ccd9	0.08779306
106	0x3e2c0419	0.16798438
107	0xbdba7e7d	-0.09106157
108	0xbd0b7cb8	-0.034054488
109	0xbe2ce5bd	-0.16884513
110	0x3d0dd78f	0.0346294
111	0xbdb364b8	-0.08759445
112	0x3ced85ac	0.028994404
113	0xbdfc388d	-0.12315474
114	0xbc315d25	-0.01082543
115	0x3d5f8d26	0.05457797
116	0x3d00a393	0.031405997
117	0xbd04a3a1	-0.03238261
118	0xbe0463d9	-0.12928714
119	0x3d9107b0	0.070815444
120	0x3e100c90	0.14067292
121	0x3d43f384	0.047839656
122	0x3df876c0	0.12132025
123	0x3e1b3e4d	0.15160485
124	0xbced61b0	-0.028977245
125	0x3d19d931	0.037560645
126	0xbb0f3bd2	-0.0021855724
127	0x3c8219e0	0.015881479
128	0x3d2d737b	0.04234646
129	0xbd89570a	-0.067060545
130	0x3e38cea4	0.18047577
131	0xbe1636b1	-0.146693
132	0xbdbe372d	-0.09287868
133	0x3c92168c	0.017833017
134	0xbc03bbb3	-0.008040356
135	0x3d8ea832	0.069656745
136	0x3dc5567a	0.09635635
137	0x3d4a8a3c	0.049448237
138	0x3e0778a8	0.1322962
139	0x3d07c1a4	0.033143654
140	0x3c39361f	0.011304407
141	0xbd11c7f4	-0.03559108
142	0x3e10cafa	0.1413993
143	0xbd17e28d	-0.03708129
144	0x3d8d75af	0.06907212
145	0xbd87a8b8	-0.066239774
146	0xbdc351a4	-0.09537056
147	0x3db8e2fb	0.09027668
148	0x3e22e58e	0.1590788
149	0xbd5cfb86	-0.05395081
150	0xbda2d69b	-0.07951089
151	0xbe1e8ea8	-0.15484107
152	0x3c8d2e07	0.017233862
153	0xbdef0723	-0.11671283
154	0xbd8bf2f3	-0.06833448
155	0x3e18f4b7	0.14937101
156	0x3d7faedc	0.06242262
157	0x3db5dff2	0.08880605
158	0xbde1fc50	-0.11034453
159	0xbe0569f1	-0.13028695
160	0xbda39ffb	-0.07989498
161	0x3de9b387	0.11411195
162	0xbd5723ec	-0.052524492
163	0xbd6cb488	-0.057789356
164	0x3b860512	0.00408996
165	0xbcffbae3	-0.031217044
166	0x3d549dc2	0.051908262
167	0x3de2ad37	0.11068194
168	0xbe0d92a1	-0.13825466
169	0xbc996a9c	-0.018727593
170	0xbd98c8fb	-0.07460209
171	0xbcddc0d2	-0.027069483
172	0xbded385c	-0.11583015
173	0x3e211da9	0.1573397
174	0xbdd4fc34	-0.103996664
175	0x3debdfe2	0.11517312
176	0x3b51f533	0.003203702
177	0xbd8ac641	-0.06776095
178	0xbd4d35fa	-0.050100304
179	0xbe03e3a9	-0.12879814
180	0xbd23c224	-0.03998007
181	0xbe0b4b22	-0.1360288
182	0x3d87bba0	0.066275835
183	0xbe0bf6a3	-0.13668303
184	0x3dbea588	0.09308916
185	0xbdd2fc02	-0.10301973
186	0xbd908412	-0.070564404
187	0x3d159354	0.036517456
188	0xbe2b011d	-0.16699643
189	0xbdccf446	-0.10007529
190	0xbe10b7ef	-0.14132665
191	0xbe2fc577	-0.1716517
192	0x3db41d5b	0.087946616
193	0xb977d377	-0.00023634532
194	0x3ce7eecf	0.028312115
195	0x3d8c4ab8	0.06850189
196	0xbc3c211c	-0.011482503
197	0xbdab835e	-0.08374666
198	0xbdc0b5c0	-0.09409666
199	0xbb06d2f6	-0.002057252
200	0xbd674cf1	-0.05646986
201	0x3db35a82	0.08757497
202	0x3b24592b	0.0025077562
203	0x3e062d33	0.1310318
204	0x3cb2579c	0.021770291
205	0xbdb21e1f	-0.086971514
206	0xbdc78c60	-0.09743571
207	0x3da12cb0	0.078698516
208	0xbdad065a	-0.08448477
209	0x3cc0fe5f	0.023558794
210	0xbd9fb14d	-0.07797489
211	0xbde26556	-0.110544845
212	0xbc723d9b	-0.014785196
213	0x3d437547	0.047719266
214	0x3da1b5a8	0.07895976
215	0xbe030b2d	-0.12797232
216	0xbdddce1f	-0.1083033
217	0x3d27235b	0.040805202
218	0x3dc6749c	0.0969021
219	0xbd532004	-0.051544204
220	0x3d9e870d	0.07740603
221	0xbd4c3a19	-0.049860094
222	0xbdb90a79	-0.090352006
223	0x3ca9442b	0.020662388
224	0xbdf0d012	-0.11758436
225	0x3c6f3447	0.014599866
226	0xbc18be91	-0.009322778
227	0xbcfe0eba	-0.031012882
228	0x3a7ba7ec	0.00095999124
229	0xbdbe2a97	-0.09285467
230	0x3d985adc	0.07439205
231	0xbd88e518	-0.06684321
232	0x3d4fef84	0.05076553
233	0x3cc0c95f	0.023533521
234	0xbd1d3a2f	-0.038385566
235	0x3c9f6cef	0.019461123
236	0xbda77703	-0.081769966
237	0xbc6b0fee	-0.01434706
238	0x3d2a59ea	0.041589655
239	0xbd069aa9	-0.03286234
240	0x3da64dcd	0.08120308
241	0xbd9d8e47	-0.07693153
242	0xbd645339	-0.05574343
243	0x3d89bd94	0.06725612
244	0x3d867017	0.06564348
245	0xbe17fa53	-0.14841585
246	0xbd749d2c	-0.059720203
247	0x3ce0577e	0.02738547
248	0xbc08857b	-0.0083326055
249	0x3dd77115	0.105196156
250	0xbe134a91	-0.14383914
251	0x3bc6fa13	0.0060722916
252	0xbde7c91f	-0.11317658
253	0x3c98f989	0.018673675
254	0xbd87f72f	-0.066389434
255	0xbcc42df6	-0.023947697

lstm.weight_hh_l1 f4 [256, 64]
0	0xbda51656	-0.08060901
1	0x3d061d8b	0.032743018
2	0xbd78bd48	-0.060727388
3	0xbd919769	-0.07108957
4	0xbd971007	-0.07376104
5	0xbd5e15ac	-0.054219887
6	0xbd1ed3b2	-0.038776107
7	0xbd0d1589	-0.034444366
8	0x3db8fa0b	0.09032067
9	0x3d03eef1	0.032210294
10	0xbc3d3c65	-0.011550044
11	0xbe090e54	-0.13384372
12	0x3d996936	0.074907705
13	0x3df2f672	0.11863412
14	0xbc550967	-0.01300273
15	0x3dd9c18f	0.106326215
16	0x3de8fb8a	0.11376102
17	0x3d745b40	0.059657335
18	0xbde9709d	-0.113984324
19	0xbd1ca68e	-0.038244776
20	0xbd12fc09	-0.03588489
21	0x3c4cf346	0.012509173
22	0xbd465a53	-0.048425984
23	0xbd3c4826	-0.045967244
24	0xbdc0b87d	-0.09410188
25	0x3b95fa7f	0.0045769806
26	0xbdb3784a	-0.08763178
27	0xbd74233c	-0.059603915
28	0x3d7041b4	0.05865641
29	0x3dcc2bcf	0.09969293
30	0x3e16710b	0.1469156
31	0x3e05daab	0.13071696
32	0xbdd5eba9	-0.10445339
33	0xbbefe3ab	-0.0073208413
34	0xbd3319f8	-0.043725938
35	0x3d3f89d8	0.046762317
36	0x3e0adf7e	0.13561818
37	0x3d9bbbba	0.076041654
38	0x3da616d0	0.0810982
39	0xbd96e668	-0.07368165
40	0x3dd69623	0.10477855
41	0xbdc526fb	-0.096265756
42	0xbddbbaf5	-0.107290186
43	0x3d6dae9a	0.05802784
44	0x3df25423	0.11832454
45	0x3d8df890	0.06932175
46	0xbe097423	-0.13423209
47	0x3ca2c106	0.019867431
48	0xbcd82dba	-0.026388992
49	0x3c3aacc4	0.01139373
50	0xbd1f4852	-0.03888733
51	0xbd5f154c	-0.05446367
52	0xbcb9691c	-0.022633128
53	0x3c479002	0.01218033
54	0x3da1e8d8	0.079057395
55	0xbd72bd7b	-0.059262734
56	0xbd04d3e6	-0.032428645
57	0x3da140b8	0.07873672
58	0xbd5e5ce0	-0.05428779
59	0xbdeba102	-0.11505319
60	0xba8775de	-0.001033481
61	0x3d88bc28	0.06676513
62	0xbc61a759	-0.013772809
63	0x3bcf610f	0.006328709
64	0x3deb36ab	0.114850365
65	0x3d37f4a6	0.04491105
66	0x3bb4def8	0.005519744
67	0x3d95735a	0.07297392
68	0xbd18127b	-0.037127
69	0xbda578d2	-0.08079685
70	0x3d944d52	0.0724131
71	0xbdc4de53	-0.096127175
72	0x3d8af3d3	0.06784787
73	0x3d3909bb	0.045175295
74	0x3db57a14	0.08861175
75	0x3d0ba302	0.034091003
76	0x3dbb7dee	0.091548786
77	0x3d80657e	0.06269358
78	0x3dc6f41a	0.097145274
79	0xbd893ef2	-0.06701459
80	0x3e0f8cc3	0.1401854
81	0x3c57027b	0.01312315
82	0x3df0e937	0.11763232
83	0x3e256f55	0.16155751
84	0xbdf01039	-0.11721844
85	0x3da7c220	0.08191323
86	0x3c7cf5bc	0.015439447
87	0xbd4480dc	-0.047974452
88	0xbe01d55b	-0.12679045
89	0x3bc554d8	0.006022077
90	0x3d8fc469	0.07019884
91	0x3d314065	0.043274302
92	0x3ced63a1	0.02897817
93	0xbdae88de	-0.08522199
94	0xbe31b295	-0.1735328
95	0xba58bdcf	-0.000826803
96	0xbdfd04f1	-0.12354458
97	0xbdae91f7	-0.08523934
98	0xbe1b5252	-0.15168121
99	0x3d6e66b2	0.058203407
100	0xbcfb820d	-0.030701661
101	0x3d88341b	0.06650563
102	0xbdae0bc7	-0.0849834
103	0xbd6c3d36	-0.057675563
104	0x3d61851e	0.05505859
105	0x3dca5cb1	0.09880961
106	0x3da78c48	0.081810534
107	0x3d8acb4c	0.06777057
108	0xbe1c8628	-0.15285552
109	0x3c862344	0.016374238
110	0xbc93a9f8	-0.018025383
111	0x3de2e15e	0.11078142
112	0x3db7f2e6	0.08981876
113	0xbc95d357	-0.018289251
114	0xbce89836	-0.028392892
115	0x3db57a9a	0.08861275
116	0xbdba73b7	-0.09104102
117	0xbcbfcbda	-0.023412634
118	0xbc0e800a	-0.008697519
119	0xbd6bc5d2	-0.057561703
120	0x3c489769	0.01224313
121	0xbdea1e47	-0.11431556
122	0x3d2f108e	0.042740397
123	0x3daf84a4	0.08570221
124	0x3de6c143	0.112673305
125	0x3db54a92	0.08852114
126	0x3ce8f31f	0.028436242
127	0x3dd0781e	0.101791605
128	0x3d893a9e	0.067006335
129	0xbc547313	-0.012966889
130	0x3d605f51	0.0547784
131	0x3dae4c98	0.08510703
132	0xbc500638	-0.012696795
133	0xbe2bc392	-0.16773823
134	0x3dc7f153	0.09762826
135	0xbd540bcf	-0.051769074
136	0xbd36d327	-0.044634964
137	0xbd7ac56a	-0.061223425
138	0xbd340ac4	-0.04395558
139	0x3c2f554a	0.010701487
140	0x3def17c0	0.11674452
141	0xbda9ca59	-0.08290548
142	0x3c60ddfa	0.013724798
143	0x3d00b7c9	0.03142527
144	0x3df51677	0.119671755
145	0xbd97bf9a	-0.07409592
146	0x3d6505ab	0.05591361
147	0xbde17f31	-0.11010588
148	0x3d04633b	0.032321196
149	0xbd980183	-0.07422163
150	0x3c99e3e4	0.018785425
151	0x3c41ebc0	0.011835992
152	0xbc997b9e	-0.018735703
153	0x3bc3fbe7	0.005980957
154	0xbda87109	-0.08224685
155	0xbdc8fccd	-0.09813843
156	0xbddb44d4	-0.10706487
157	0x3cd18e35	0.025580505
158	0xbc6efbc3	-0.014586392
159	0x3e4b248e	0.19838163
160	0x3d3fa5ce	0.046788983
161	0x3dc1340a	0.09433754
162	0x3c96ec22	0.018423144
163	0x3be038d2	0.006842711
164	0xbe0cee54	-0.1376279
165	0xbd03f9cf	-0.032220658
166	0x3dbebd8c	0.09313497
167	0x3d7c48c2	0.061592825
168	0x3c72992d	0.014807028
169	0xbd60e5d9	-0.0549067
170	0x3c17d361	0.009266705
171	0x3b5017ee	0.0031752544
172	0xbdda735f	-0.106665365
173	0xbc9f5379	-0.019448983
174	0xbd96a050	-0.07354796
175	0x3d8d2dc0	0.06893492
176	0x3d2303e6	0.03979864
177	0xbbac1692	-0.005251714
178	0x3d02581a	0.0318223
179	0x3c9a3e0f	0.01882842
180	0xbddbec8a	-0.107384756
181	0xbd3a417f	-0.04547262
182	0xbdc05a9e	-0.09392284
183	0x3cdd61e0	0.02702421
184	0x3e05b7dd	0.1305842
185	0xbdae0461	-0.08496929
186	0x3cd9dee5	0.026595542
187	0x3deecdbe	0.11660336
188	0x3d70fe00	0.058835983
189	0x3d28c9de	0.04120814
190	0x3d231fbf	0.039825197
191	0x3cb6f0e6	0.022331666
192	0x3da7a8af	0.08186471
193	0xbda537ed	-0.080673076
194	0x3d9c9cdf	0.07647108
195	0xbd1b893d	-0.037972677
196	0xbd69e5a7	-0.05710378
197	0x3dc0013f	0.09375238
198	0x3df54e34	0.11977807
199	0x3dbcf152	0.09225716
200	0x3cecb126	0.028893065
201	0x3d042300	0.03225994
202	0xbd75cbfc	-0.060008988
203	0x3c72699d	0.014795688
204	0x3d03cc38	0.03217718
205	0xbd14d3fe	-0.036334984
206	0xbcd7d6e9	-0.026347594
207	0xbd8bde90	-0.0682956
208	0x3da6063e	0.08106659
209	0x3d10e4ab	0.035374325
210	0x3c1376a2	0.009000452
211	0x3dd6ec83	0.1049433
212	0xbc9c0f44	-0.019050248
213	0xbd311b9c	-0.04323922
214	0x3dea9c05	0.114555396
215	0x3cc2bb4c	0.02377095
216	0x3c7271a1	0.014797599
217	0x3cb2f1c5	0.0218438
218	0xbd953734	-0.0728592
219	0xbdbc3d52	-0.091913834
220	0x3ddbea64	0.10738066
221	0xbd789896	-0.060692392
222	0x3c20d876	0.009817233
223	0x3dc84364	0.09778479
224	0x3d9da2c9	0.076970644
225	0x3d8f610d	0.07000933
226	0x3b825521	0.0039774333
227	0xbe077569	-0.13228382
228	0xbd07243b	-0.032993536
229	0x3c9ee019	0.019393967
230	0xbc8f2a89	-0.017476337
231	0xbdb9725f	-0.09055018
232	0xbd86290b	-0.06550797
233	0x3de83e43	0.113400005
234	0x3ce7bcba	0.028288234
235	0xbc95b1a2	-0.018273178
236	0xbde78dbc	-0.113063306
237	0xbd0da111	-0.034577433
238	0x3e145563	0.14485697
239	0xbd61238a	-0.054965533
240	0xbdae301e	-0.085052714
241	0xbde1494f	-0.11000311
242	0x3d90a366	0.07062416
243	0x3e031c9c	0.12803882
244	0x3db13cf1	0.08654202
245	0x3daa62cd	0.08319626
246	0xbc2f28e6	-0.010690903
247	0xbdb19a5b	-0.08672019
248	0xbd3e6819	-0.046485994
249	0x3c1f2e7e	0.009715674
250	0x3e0ede58	0.13952005
251	0xbac15817	-0.0014750984
252	0x3d3d0cd9	0.04615483
253	0x3dc20261	0.0947311
254	0xbce31ee4	-0.02772469
255	0xbdad82ef	-0.08472239

lstm.bias_ih_l1 f4 [256]
0	0xbbb695f0	-0.005572073
1	0x3de6c389	0.11267764
2	0x3d340eb6	0.043959342
3	0x3de3fb44	0.111319095
4	0x3dbe0d13	0.092798375
5	0x3bcbea61	0.0062230085
6	0x3de57596	0.11204068
7	0xbac5855c	-0.0015069651
8	0x3e0eb0c8	0.13934624
9	0xbd9e6187	-0.077334456
10	0xbd9399a1	-0.07207037
11	0x3d5cea50	0.053934395
12	0x3d7c87f6	0.0616531
13	0xbcba6f1b	-0.022758057
14	0xbd9faf00	-0.077970505
15	0x3d0bf455	0.03416856
16	0x3e00ea80	0.12589455
17	0x3d8acef0	0.067777514
18	0x3df9028e	0.121586904
19	0x3e17ae5e	0.1481261
20	0x3de8eff3	0.11373892
21	0x3ca344f4	0.01993034
22	0x3ceb097d	0.028691048
23	0xbd7372cc	-0.05943565
24	0x3d9c4087	0.07629495
25	0x3c88a6ce	0.016681101
26	0xbced533d	-0.028970355
27	0xbd21076d	-0.039313722
28	0xbd300397	-0.042972174
29	0x3c9014e0	0.017588079
30	0x3dc27396	0.094947025
31	0x3df5c814	0.120010525
32	0xbd0e36a3	-0.034720074
33	0x3e1799a1	0.14804699
34	0x3ba74833	0.0051050424
35	0xbdcd0119	-0.10009975
36	0x3de0751f	0.10959839
37	0x3df2ec6a	0.11861499
38	0x3e21ad07	0.15788661
39	0x3e126191	0.14295031
40	0xbc34d9a6	-0.01103822
41	0x3d88d808	0.0668183
42	0x3d59a804	0.053138748
43	0xbd94a84a	-0.07258661
44	0x3e137fae	0.14404175
45	0xbda2c4d7	-0.079477005
46	0x3cf807f9	0.03027724
47	0xbc50b5a2	-0.012738617
48	0x3e2ff997	0.17185055
49	0x3e07723d	0.13227172
50	0x3d7ef84a	0.062248506
51	0xbd167d41	-0.036740545
52	0x3db86326	0.09003286
53	0xbd93e869	-0.07222063
54	0x3cce1c18	0.02515988
55	0xbdc4afea	-0.096038654
56	0x3b7e6c30	0.003882181
57	0x3d993c4c	0.07482204
58	0x3dbdaabb	0.0926108
59	0xbd06c4de	-0.03290259
60	0xbce0e1c8	-0.02745141
61	0x3d89b15a	0.0672328
62	0xbd48fc48	-0.04906872
63	0xbdabd786	-0.08390717
64	0x3d8dbc14	0.06920639
65	0x3d03dbf3	0.03219218
66	0xbdbb07ed	-0.09132371
67	0xbe16131b	-0.14655726
68	0x3cfbefc2	0.030753974
69	0xbd4c351c	-0.049855337
70	0xbd7088ac	-0.05872409
71	0x3dd1dc5e	0.1024711
72	0x3dafa550	0.08576453
73	0x3dbff2fc	0.093725175
74	0x3ccfa3e7	0.02534671
75	0xbc8a4563	-0.01687879
76	0xbd9ffe02	-0.0781212
77	0x3d81eea9	0.06344349
78	0xbda1d2ad	-0.07901511
79	0xbc4d259d	-0.012521175
80	0x3c7f9ce5	0.015601371
81	0x3deb4a5c	0.11488792
82	0x3d38738a	0.04503206
83	0xbe0cbaf1	-0.13743187
84	0xbca03c6c	-0.019560061
85	0x3db7a5a5	0.08967141
86	0xbdaa64fb	-0.08320042
87	0x3ccd08fc	0.025028698
88	0xbd33e9a2	-0.04392398
89	0xbdd16445	-0.10224203
90	0x3de1c658	0.11024159
91	0xbd32e201	-0.043672565
92	0x3dd0772c	0.1017898
93	0x3daa25cf	0.08307993
94	0xbdc08ec3	-0.0940223
95	0xbdc05943	-0.09392025
96	0xbc3f85e8	-0.011689641
97	0xbdc3f404	-0.09568027
98	0x3df39a04	0.118946105
99	0x3d692e10	0.056928694
100	0x3df91ae5	0.12163333
101	0xbd76ca61	-0.060251597
102	0xbc28c652	-0.0103011895
103	0xbab31370	-0.0013662409
104	0xbd7023d4	-0.05862792
105	0xbd8d7feb	-0.06909164
106	0x3d8aa99d	0.067706324
107	0x3b4e4f1b	0.0031480256
108	0x3ded21b5	0.11578695
109	0x3c18caf8	0.009325735
110	0x3ca3e0ce	0.020004656
111	0x3d47dad3	0.04879267
112	0xbde1b171	-0.110201724
113	0xbdd9c319	-0.10632915
114	0xbd8cf678	-0.06882948
115	0xbd3980c0	-0.0452888
116	0x3d080e79	0.033216927
117	0xbce1ea8c	-0.027577661
118	0xbdea191b	-0.1143057
119	0xbd22f905	-0.039788265
120	0xbde6101a	-0.1123354
121	0xbd39638e	-0.04526096
122	0xbdaf83fd	-0.08570097
123	0xbccb3c94	-0.02480916
124	0xbdbf8c00	-0.09352875
125	0xbdeb8b15	-0.11501137
126	0x3dbd640f	0.092476
127	0x3decab45	0.115561046
128	0xbdd66507	-0.10468488
129	0xbc4323b1	-0.011910365
130	0xbe006a36	-0.12540516
131	0xbdd8c3f8	-0.10584253
132	0xbde3a2d2	-0.1111504
133	0xbd8e2ead	-0.069424964
134	0x3e060d88	0.130911
135	0x3d4d1701	0.050070766
136	0x3d8d4dad	0.06899581
137	0xbd31a4d1	-0.04337007
138	0x3d2182c4	0.03943135
139	0x3d652a68	0.055948645
140	0x3d6f316c	0.05839674
141	0xbc7f61b9	-0.015587264
142	0xbd83c526	-0.064340875
143	0x3d968042	0.07348682
144	0x3dddc3eb	0.10828384
145	0xbd47acf8	-0.04874894
146	0x3da2540c	0.07926187
147	0x3ccecbe7	0.025243713
148	0x3c71ab19	0.0147502655
149	0x3dc98cfc	0.09841344
150	0x3c53edea	0.012935141
151	0x3cb05f78	0.021529898
152	0xbce47576	-0.027888041
153	0xbdf423b0	-0.11920869
154	0x3c43bd12	0.011946933
155	0x3ba852f8	0.005136844
156	0x3c3bc7bd	0.011461196
157	0x3d030bb0	0.031993568
158	0xbd371eb5	-0.04470702
159	0x3de842a3	0.11340835
160	0xbde3da88	-0.11125666
161	0xbc26fe41	-0.010192455
162	0xbcef978c	-0.029247068
163	0x3c8cc7bd	0.017185086
164	0xbd4e33b6	-0.050342284
165	0x3d42f731	0.04759902
166	0xbd9f8353	-0.0778872
167	0x3c9a8cbb	0.018865934
168	0xbce17fd1	-0.027526768
169	0x3dc7ec81	0.097619064
170	0x3e0da72e	0.13833305
171	0x3dff52f0	0.12466991
172	0xbd9a9d3d	-0.07549522
173	0x3db0bda0	0.08629918
174	0xbd53c33a	-0.051699854
175	0x3cec6eb2	0.028861377
176	0x3ce42000	0.02784729
177	0xbdc46290	-0.09589112
178	0xbdd6987f	-0.10478305
179	0x3ccda266	0.025101852
180	0x3b03c1b1	0.0020104463
181	0xbdffae10	-0.12484372
182	0x3d5593ab	0.05214278
183	0x3da1dc8f	0.07903396
184	0xbce86e2d	-0.028372848
185	0xbdd6bb33	-0.10484924
186	0x3d90831f	0.07056259
187	0xbd8aca91	-0.06776918
188	0xbcde4105	-0.027130613
189	0xbd23b44e	-0.039966874
190	0x3d8269e6	0.06367855
191	0x3d2a1c98	0.041531175
192	0xbdcf635e	-0.10126375
193	0xbdc5a6c6	-0.0965095
194	0xbcba82e8	-0.0227675
195	0xbdc25e21	-0.0949061
196	0x3bb58dde	0.0055405935
197	0xbd00eb68	-0.0314745
198	0xbc923597	-0.01784782
199	0xbe0be768	-0.13662493
200	0x3e1652df	0.1468005
201	0xbd12dc3d	-0.035854567
202	0x3b4036a0	0.0029329434
203	0x3dd80e9d	0.10549662
204	0x3ae2e822	0.0017311613
205	0xbba6415e	-0.0050737103
206	0x3ccd328e	0.02504852
207	0xbd1f03b6	-0.0388219
208	0x3dda66fb	0.10664173
209	0x3d10caf4	0.0353498
210	0x3daf35f2	0.08555211
211	0x3d47a61e	0.048742406
212	0x3d03aa4d	0.032144833
213	0xbd354dc7	-0.044263627
214	0x3db7007d	0.0893564
215	0xbc6929b1	-0.014231131
216	0x3dbc2dfa	0.09188457
217	0x3dc5badf	0.096547835
218	0xbd1ff70c	-0.03905396
219	0xbd89fc0f	-0.067375295
220	0x3c6e3a42	0.014540257
221	0x3e033f56	0.1281713
222	0x3cfd2942	0.030903462
223	0x3e019a16	0.12656435
224	0x3d57ca25	0.052683014
225	0x3df23219	0.118259616
226	0xbd895af6	-0.067068025
227	0x3c595f31	0.013267324
228	0xbd3e3dfb	-0.046445828
229	0xbd48f1aa	-0.049058594
230	0x3df8ea6c	0.121540874
231	0xbd0cd9ca	-0.034387387
232	0xbcf3566e	-0.029704299
233	0x3e05d59a	0.13069764
234	0xbd1fbf03	-0.039000522
235	0xbda58f22	-0.08083941
236	0xbbc9d9b2	-0.0061599845
237	0x3ce0cd0f	0.02744153
238	0xbda8be4f	-0.082394235
239	0xbdc18ad6	-0.09450309
240	0xbcaa5f65	-0.02079744
241	0x3cfa8fc9	0.03058614
242	0x3c74a46a	0.0149317775
243	0xbdbfd7e0	-0.09367347
244	0xbdb2a107	-0.0872212
245	0x3d478de9	0.04871932
246	0xbd6b1ea6	-0.057402276
247	0xbd4633b2	-0.048389144
248	0xbd1e3cde	-0.038632266
249	0xbe0d45db	-0.13796179
250	0x3c9b01a1	0.018921675
251	0xbc57614b	-0.013145755
252	0x3d669cb0	0.056301773
253	0x3d17ff1b	0.037108522
254	0x3db5b330	0.08872068
255	0xbc347ae0	-0.011015624
