training/lstm_TSLA.pt (torch, 228003 bytes, 11 tensors)

lstm.weight_ih_l0 f4 [256, 5]
0	0x3de8b82d	0.11363254
1	0x3dfb4e02	0.12270738
2	0xbc449b01	-0.011999846
3	0x3e0888f0	0.13333488
4	0xbd573393	-0.05253942
5	0x3d86fb08	0.06590849
6	0xbc8502b7	-0.016236646
7	0x3df00f0a	0.117216185
8	0x3e22bed9	0.15893115
9	0xbd4b65ad	-0.049657512
10	0x3e0a4853	0.13504152
11	0x3d543d31	0.05181617
12	0x3df277ae	0.11839233
13	0x3d3a8226	0.045534275
14	0x3dc06d7b	0.09395882
15	0x3bafdcdc	0.0053669047
16	0x3df55a4a	0.11980112
17	0x3d255f95	0.040374357
18	0xbd10cda7	-0.035352375
19	0x3cf7a6a5	0.03023083
20	0xbcba2ba2	-0.022725884
21	0x3cb8f747	0.022578849
22	0xbc7f6f3c	-0.015590485
23	0x3df809aa	0.12111218
24	0xbd9b3f1e	-0.07580398
25	0xbd1886d8	-0.037237972
26	0xbc4fee41	-0.0126910815
27	0xbd60ca31	-0.054880325
28	0x3d0f6cfc	0.035016045
29	0xbddee266	-0.10883026
30	0x3dc6db2a	0.09709771
31	0xbdfbe34b	-0.12299212
32	0x3d9e9086	0.077424094
33	0x3a6be711	0.000899897
34	0xbc90a01b	-0.01765447
35	0x3dd21683	0.102582
36	0x3d3f7a83	0.046747696
37	0x3e00f8bd	0.12594886
38	0x3d29859f	0.041387197
39	0xbc80848f	-0.015688209
40	0x3d29b4b6	0.041432105
41	0xbcce7043	-0.025200015
42	0x3d713665	0.058889765
43	0x3df426ca	0.11921461
44	0x3d9cd766	0.076582715
45	0xbce3df4a	-0.027816433
46	0x3dd15c6c	0.10222706
47	0x3d4ca1de	0.049959056
48	0x3dc28316	0.09497659
49	0xbd1715bf	-0.036885973
50	0xbe0ea41a	-0.13929787
51	0xbd802f02	-0.06258966
52	0xbde8014d	-0.11328373
53	0x3db1a0f7	0.0867328
54	0x3db9008d	0.09033308
55	0x3d90221c	0.07037756
56	0x3d80918a	0.062777594
57	0x3c964bed	0.018346751
58	0x3dfd79b6	0.1237673
59	0xbd4f8a12	-0.050668783
60	0xbd008fdc	-0.031387195
61	0xbe0087d2	-0.12551811
62	0xbb4a8ea1	-0.0030907767
63	0xbdaf39af	-0.08555924
64	0x3da5e405	0.08100132
65	0x3a594eef	0.0008289655
66	0x3e080cb7	0.132861
67	0xbd3db84c	-0.046318337
68	0xbd340a00	-0.04395485
69	0xbd91e6cb	-0.071240984
70	0x3e170f39	0.147519
71	0x3da56af4	0.0807704
72	0x3e210847	0.15725814
73	0xbd7bb1c7	-0.06144884
74	0xbdcab0c2	-0.09896995
75	0xbd5dd1e0	-0.05415523
76	0xbd17fd9b	-0.03710709
77	0x3dc56c63	0.09639814
78	0x3dc20e4d	0.09475384
79	0x3e0e415c	0.1389212
80	0xbd114a75	-0.0354714
81	0xbd6de316	-0.058077894
82	0x3dc082ce	0.09399949
83	0xbccc5306	-0.024941932
84	0x3d83de49	0.06438882
85	0xbd0e45f1	-0.03473467
86	0x3d92597b	0.07145973
87	0xbdd0398f	-0.101672284
88	0xbd7ea959	-0.06217322
89	0x3deb7853	0.114975594
90	0x3d186416	0.037204824
91	0xbc9cb2ba	-0.019128192
92	0x3daf6969	0.08565027
93	0x3dc9cc65	0.09853438
94	0xbda0e85b	-0.07856818
95	0xbd3c7cbf	-0.046017405
96	0x3e0bac01	0.13639833
97	0xbcb76727	-0.022388054
98	0xbcbbed14	-0.022940196
99	0xbe1224e2	-0.14271882
100	0xbd49f741	-0.049308065
101	0x3d59c618	0.053167433
102	0x3b710e63	0.0036782257
103	0xbd908919	-0.07057399
104	0xbc322ea6	-0.01087538
105	0xbd9e44c0	-0.07727957
106	0xbdccb849	-0.09996087
107	0xbd84a540	-0.064768314
108	0xbddb73cd	-0.107154466
109	0xbdc04112	-0.09387411
110	0x3e29a0de	0.16565272
111	0x3d83b495	0.06430928
112	0x3da0d92b	0.078539215
113	0xbd9c8c37	-0.07643931
114	0xbe1059ca	-0.14096752
115	0xbc9d754b	-0.019220969
116	0x3d2f3b47	0.04278114
117	0xbdb549f9	-0.08852
118	0xbcfda930	-0.030964464
119	0xbd96720e	-0.07345973
120	0xbc570239	-0.0131230885
121	0xbd738e3c	-0.059461817
122	0xbcd07220	-0.025445044
123	0xbdce45a1	-0.100718744
124	0xbd1186f4	-0.035529092
125	0xbdfc1333	-0.123083495
126	0xbdc91ef8	-0.0982036
127	0xbe1e9923	-0.15488105
128	0x3d31098a	0.043221988
129	0xbcc21c0f	-0.02369502
130	0x3dfc0d76	0.12307255
131	0x3d66684f	0.05625182
132	0xbdb511d5	-0.08841292
133	0x3dd90828	0.10597259
134	0xbc997cae	-0.01873621
135	0x3af53981	0.0018709154
136	0xbd52f49d	-0.051502813
137	0xbd977c9f	-0.073968165
138	0x3db679f9	0.08909983
139	0xbbc5d42e	-0.0060372567
140	0x3d844f0b	0.06460389
141	0xbdae2c43	-0.08504536
142	0x3ddd7214	0.10812774
143	0xbd988463	-0.07447126
144	0xbd31e0f2	-0.043427415
145	0x3d16fc5c	0.036861762
146	0x3d9d21ee	0.07672487
147	0x3de435aa	0.11143048
148	0x3e014e66	0.12627563
149	0xbde98f52	-0.11404289
150	0x3d635436	0.05550023
151	0xbcf5e108	-0.03001453
152	0x3c1c1cb5	0.009528329
153	0xbd90aa3d	-0.070637204
154	0x3df6932a	0.12039788
155	0xbda7fe2b	-0.082027756
156	0x3da2bd99	0.07946319
157	0x3d616b7f	0.055034157
158	0x3d62c16a	0.055360235
159	0xbd623db5	-0.05523463
160	0x3e0de4e1	0.13856842
161	0x3d61a7c2	0.055091627
162	0x3d2716a6	0.040793084
163	0xbda7b202	-0.08188249
164	0x3dd511ea	0.104038075
165	0x3c894c20	0.016759932
166	0xbca73698	-0.020411775
167	0x3e122ce8	0.14274943
168	0x3d84ec44	0.064903766
169	0xbdc8c7e4	-0.09803751
170	0xbd05ecad	-0.032696415
171	0x3ce8611f	0.028366623
172	0x3dd04941	0.10170222
173	0x3b9110d8	0.0044270568
174	0xbd14ed4f	-0.036359128
175	0xbcb72ea9	-0.022361116
176	0xbd903a4c	-0.07042369
177	0x3d846c36	0.06465952
178	0x3df5cf58	0.12002438
179	0xbdb199dc	-0.086719245
180	0x3d6fd0ce	0.05854874
181	0x3dc6a406	0.09699254
182	0x3d5ce852	0.053932495
183	0xbc19af82	-0.009380223
184	0x3dbc9242	0.09207584
185	0x3db8e5e9	0.09028227
186	0x3d96d765	0.07365302
187	0x3b469e86	0.003030689
188	0xbbac8473	-0.0052648126
189	0x3c8f3286	0.017480146
190	0xbd1dc477	-0.03851744
191	0xbd5cf70a	-0.053946532
192	0x3d7202e3	0.059084784
193	0x3db09f2d	0.0862411
194	0x3cf2eb8e	0.029653337
195	0x3ac2b2f7	0.0014854361
196	0x3d0a31fc	0.033739075
197	0x3cc2c370	0.023774832
198	0x3d8360ca	0.064149454
199	0x3d6bae88	0.057539493
200	0xbdaab00e	-0.08334361
201	0xbc66f15c	-0.0140956305
202	0x3e0ab19d	0.13544317
203	0x3da65c28	0.08123046
204	0x3c4e2e12	0.012584226
205	0xbdfe2c1b	-0.12410756
206	0xbe050110	-0.12988687
207	0xbe293b26	-0.1652647
208	0xbdca80fd	-0.09887884
209	0x3cd3f7e6	0.025875043
210	0x3dc2c400	0.0951004
211	0x3d9c2249	0.07623727
212	0xbdc5ae99	-0.096524425
213	0xbd68c15c	-0.056825027
214	0x3d15ea13	0.036600184
215	0x3e150ee4	0.14556462
216	0x3d3bf882	0.045891292
217	0xbbf23c8a	-0.0073924707
218	0x3da5592d	0.080736496
219	0x3b32d58d	0.002728793
220	0xbd647e07	-0.05578425
221	0x3def67a5	0.116896905
222	0xbd01ba08	-0.031671554
223	0x3a6d4f06	0.0009052608
224	0xbda7ff78	-0.08203024
225	0x3da25445	0.079262294
226	0x3db8583a	0.09001203
227	0x3d1f39cb	0.038873475
228	0xbdc0a2a7	-0.094060235
229	0xbe0a6b3a	-0.13517466
230	0xbdeb2aad	-0.11482749
231	0x3d9f9cc1	0.0779357
232	0x3d391fb3	0.045196246
233	0x3db45cd2	0.088067666
234	0x3de90de5	0.11379603
235	0x3d66eb96	0.056377016
236	0x3ccad473	0.024759507
237	0xbd92fa5a	-0.07176657
238	0xbda7cb43	-0.08193066
239	0xbdbeaa4b	-0.093098246
240	0x3d9c6bdc	0.0763776
241	0xbd07bdfc	-0.033140168
242	0x3ad86333	0.0016509056
243	0xbd2a15b4	-0.041524604
244	0xbb60fc57	-0.0034330094
245	0xbcf25461	-0.02958125
246	0xbca1a31f	-0.019731103
247	0x3dd368da	0.10322733
248	0x3cee5706	0.02909423
249	0x3dd6a66e	0.10480963
250	0xbdb9dce8	-0.09075338
251	0xbe16ea9e	-0.14737937
252	0xbd9f9968	-0.07792932
253	0xbdf9215c	-0.12164566
254	0xbd1baab7	-0.038004603
255	0xbdea5b6d	-0.11443219

lstm.weight_hh_l0 f4 [256, 64]
0	0xbda713eb	-0.08158096
1	0xbd05a1f6	-0.03262516
2	0xbbad77b3	-0.0052938103
3	0xbd90fa28	-0.070789635
4	0xbdd0a7d6	-0.10188262
5	0x3dc1643c	0.09442946
6	0x3dc77380	0.09738827
7	0xbdf0e6fa	-0.11762805
8	0x3d3a47c3	0.045478594
9	0x3d441c14	0.04787834
10	0x3e025b9e	0.12730262
11	0x3da4132c	0.08011469
12	0x3da90c4a	0.08254297
13	0xbd5a81f0	-0.053346574
14	0x3db7284f	0.08943235
15	0x3dc5487b	0.09632965
16	0xbdc6dde0	-0.09710288
17	0xbddac939	-0.106829114
18	0x3ca5f191	0.02025679
19	0x3d78cb7a	0.060740925
20	0xbd2ab598	-0.041677088
21	0x3bcfc612	0.0063407505
22	0xbc766a80	-0.01504004
23	0x3cac539e	0.021035966
24	0xbd883faf	-0.06652772
25	0x3d84d956	0.06486766
26	0x3d9c8cc8	0.076440394
27	0xbdaf8479	-0.08570189
28	0x3bb9b367	0.0056671384
29	0xbc6c62f9	-0.014427894
30	0x3d56b56e	0.05241912
31	0x3dce2d67	0.100672536
32	0x3d107054	0.035263374
33	0xbc947e2d	-0.018126572
34	0x3de97e97	0.11401098
35	0xbd34ac8b	-0.044109862
36	0xbd0844c9	-0.033268724
37	0x3c531304	0.012882952
38	0xbdd0741b	-0.10178395
39	0x3cb80e8b	0.022467872
40	0xbdc24d86	-0.09487443
41	0x3bd42b13	0.0064748614
42	0x3c3e9448	0.011632033
43	0x3cce9e95	0.025222102
44	0xbdabb693	-0.08384433
45	0xbdcb4d87	-0.099268965
46	0x3d8f38b7	0.069932394
47	0x3ddeb7da	0.10874911
48	0xbdd769c0	-0.10518217
49	0x3d47f348	0.048815995
50	0xbdfc29da	-0.1231267
51	0x3abab597	0.0014244792
52	0x3dfc7724	0.12327412
53	0x3db2cd9c	0.08730623
54	0xbdb122d6	-0.086492226
55	0x3dac0101	0.08398629
56	0x3d664658	0.05621943
57	0x3b70995f	0.003671251
58	0x3df90d41	0.12160731
59	0xbd548873	-0.05188794
60	0xbd17cf85	-0.03706314
61	0xbdaf9b06	-0.0857449
62	0x3c864d57	0.0163943
63	0x3c364090	0.011123791
64	0x3d220701	0.03955746
65	0xbdc69768	-0.09696847
66	0xbcc50518	-0.02405028
67	0x3c204f15	0.00978448
68	0xbe115333	-0.14191894
69	0x3c299920	0.010351449
70	0x3caca42f	0.021074383
71	0xbda795c7	-0.08182865
72	0x3d8561c0	0.06512785
73	0xbc941b62	-0.018079463
74	0x3dde666b	0.108593784
75	0x3c876998	0.016529843
76	0xbdba0cd1	-0.09084476
77	0x3d4d0c4a	0.050060548
78	0x3d4ea74b	0.05045251
79	0xbd8c2085	-0.0684214
80	0xbd7477bd	-0.059684504
81	0x3c8f13df	0.01746553
82	0xbe1de833	-0.15420608
83	0x3c29103e	0.010318814
84	0x3dc15c43	0.09441426
85	0xbdef0a20	-0.11671853
86	0xbdf3b7cb	-0.1190029
87	0xbdf94142	-0.1217065
88	0x3ddbecb3	0.10738506
89	0x3e0ba0db	0.1363558
90	0x3d2c6c8a	0.0420957
91	0x3e14c889	0.14529623
92	0xbc5c5a9a	-0.0134493355
93	0xbe22aa7b	-0.15885346
94	0x3d94ce96	0.07265966
95	0x39b306a9	0.00034146503
96	0x3dc50174	0.09619418
97	0x3cf7c205	0.030243883
98	0x3e023b08	0.12717831
99	0x3dcfed26	0.10152654
100	0x3ded9124	0.11599949
101	0xbdd02be2	-0.1016462
102	0x3dae4ebc	0.08511111
103	0xbd944b20	-0.072408915
104	0x3da9f91c	0.08299467
105	0x3d19a522	0.037511
106	0xbdfa76ac	-0.12229666
107	0x3d79693c	0.060891375
108	0xbd535992	-0.051599093
109	0xbdaf19a0	-0.085498095
110	0xbd92882d	-0.0715488
111	0x3d0d6260	0.034517646
112	0x3e031ce7	0.12803994
113	0xbc76fe51	-0.015075282
114	0x3dcf8888	0.10133463
115	0x3bb2b843	0.0054540946
116	0x3ce3805d	0.02777117
117	0xbc08a050	-0.008339003
118	0xbd31cfe7	-0.04341116
119	0xbe1c49d0	-0.15262532
120	0xbd5f780b	-0.05455784
121	0xbda49fb0	-0.080382705
122	0xbdadef19	-0.0849287
123	0xbcaf098a	-0.021366853
124	0xbd9a0f4c	-0.07522449
125	0xbd7f1fc1	-0.062286142
126	0xbd627a49	-0.0552924
127	0xbcbaa7a4	-0.022785015
128	0xbd5a2686	-0.053259395
129	0xbc4880ee	-0.0122377705
130	0xb970557e	-0.00022920032
131	0x3ce7b5d2	0.02828494
132	0xbc5a091f	-0.013307839
133	0xbd33690f	-0.043801364
134	0xbcd5e050	-0.026107937
135	0xbcb46fca	-0.022025961
136	0xbd89e9e6	-0.06734066
137	0xbb97c3c4	-0.0046314914
138	0x3b779105	0.0037775647
139	0x3d909765	0.07060126
140	0x3cfcb540	0.030848145
141	0x3d8e7ac0	0.069570065
142	0x3c794771	0.015214787
143	0xbde519b9	-0.11186547
144	0x3d4dba9b	0.05022679
145	0xbddbbf28	-0.107298195
146	0xbd0c806d	-0.034302164
147	0xbd59a5e1	-0.05313671
148	0xbcedeaed	-0.029042685
149	0xbcf63eef	-0.030059306
150	0x3dbf10ba	0.09329362
151	0x3d60336a	0.054736532
152	0x3d49e7b9	0.049293254
153	0x3e178c7f	0.14799689
154	0xbdde77c3	-0.108626865
155	0x3d18f8e4	0.037346736
156	0x3dbdd23b	0.09268614
157	0x3d7b72bc	0.061388716
158	0xbda92343	-0.08258679
159	0x3c9b504a	0.018959183
160	0xbdaea576	-0.08527653
161	0x3c740532	0.014893817
162	0xbc10ed9f	-0.008845716
163	0xbdb31c39	-0.087456174
164	0xbdd6b883	-0.104844116
165	0xbd8b9028	-0.06814605
166	0x3d8112ec	0.06302437
167	0x3da0fe2c	0.078609794
168	0xbe05e280	-0.13074684
169	0xbaf23a41	-0.0018480496
170	0x3b2386b1	0.0024952109
171	0xbdb2219e	-0.08697818
172	0x3dbb8e82	0.091580406
173	0x3e09e0b1	0.13464619
174	0x3ca9a116	0.020706695
175	0xbdb12d50	-0.08651221
176	0x3d4ba894	0.049721316
177	0x3d766563	0.060155284
178	0x3dffcaad	0.12489829
179	0xbd9f2d1b	-0.07772275
180	0xbdc78137	-0.09741443
181	0x3d07d6b6	0.03316375
182	0x3d030613	0.031988215
183	0xbd4e3f39	-0.050353263
184	0xbd5ed24d	-0.054399777
185	0xbcb67732	-0.022273634
186	0x3db929bc	0.09041163
187	0xbd20d026	-0.039261006
188	0x3dcf11a6	0.10110788
189	0x3de4658a	0.111521795
190	0xbb15e3e7	-0.0022871436
191	0x3cc5d6d6	0.024150293
192	0x3c4f0fc7	0.012638039
193	0x3d5f7de7	0.05456343
194	0xbdacfb4e	-0.0844637
195	0x3cb76394	0.02238635
196	0xbd3c9600	-0.04604149
197	0x3d944f16	0.07241647
198	0x3cd2d220	0.025734961
199	0xbd878d1b	-0.066187106
200	0x3bef977f	0.007311761
201	0x3d4d8446	0.050174974
202	0xbda14e68	-0.07876283
203	0xbd552c3c	-0.05204414
204	0x3a88c88c	0.0010435744
205	0xbd9426c4	-0.072339565
206	0x3da71cba	0.08159776
207	0x3d65912b	0.056046646
208	0x3c36a66f	0.011148079
209	0x3de0f718	0.109846294
210	0xbd9d69ea	-0.07686217
211	0xbdade2f2	-0.08490552
212	0xbcd56ff0	-0.026054353
213	0xbdad5094	-0.08462635
214	0xbdf80a79	-0.121113725
215	0xbe09b464	-0.1344772
216	0xbde8dc7c	-0.11370179
217	0x3d4a6758	0.049414963
218	0x3dc748c8	0.09730679
219	0x3e142f9f	0.14471291
220	0x3e022d47	0.12712584
221	0xbce55a83	-0.02799726
222	0x3d6c0259	0.057619426
223	0xbdb5eb37	-0.08882754
224	0x3cc51e0f	0.024062185
225	0xbdb3561a	-0.08756657
226	0x3dabc3a8	0.08386928
227	0x3d5fcbc8	0.0546377
228	0x3d7c763f	0.061636206
229	0x3d81a16b	0.06329616
230	0xbda1b4cf	-0.078958146
231	0x3e087cda	0.13328877
232	0x3cda06a6	0.026614498
233	0x3de9335d	0.1138675
234	0x3adbb2c0	0.0016761646
235	0x3ddc3a13	0.10753264
236	0x3da5ab34	0.08089295
237	0x3db1d874	0.08683863
238	0x3dbc837e	0.09204768
239	0xbbf8d291	-0.007593461
240	0x3dd00592	0.101573125
241	0x3d385882	0.045006283
242	0x3db24229	0.08704025
243	0x3db805d7	0.08985489
244	0x3d3d1e66	0.04617157
245	0xbd9a2de0	-0.07528281
246	0x3cc22822	0.023700777
247	0x3b386faf	0.002814274
248	0x3cf66502	0.030077461
249	0xbc022868	-0.007944204
250	0x3da7804c	0.081787676
251	0x3d47a807	0.048744228
252	0xbd8f27e5	-0.06990031
253	0xbcdd6b4d	-0.027028704
254	0xbd1f9ee8	-0.038969904
255	0xbdd00e53	-0.10158982

lstm.bias_ih_l0 f4 [256]
0	0xbbf4ce25	-0.0074708634
1	0xbd5efac3	-0.054438364
2	0x3e12512c	0.14288777
3	0x3d75d1b3	0.060014438
4	0x3cb7e4b8	0.022447929
5	0x3d690529	0.056889687
6	0x3d9c086e	0.07618795
7	0xbde26edf	-0.11056303
8	0x3da0f05f	0.07858347
9	0x3de68cc1	0.112573154
10	0x3d57f286	0.052721523
11	0xbcb68e61	-0.022284688
12	0x3cb071c5	0.021538625
13	0x3d008596	0.031377397
14	0x3d2d449d	0.042301763
15	0xbd4e466a	-0.05036012
16	0x3da98226	0.08276777
17	0x3ca5b9f7	0.020230277
18	0x3b0e597d	0.002172082
19	0xbd230985	-0.039804
20	0x3dfd07dc	0.12355015
21	0xbd86933b	-0.06571051
22	0xbce79007	-0.02826692
23	0xbd7f4265	-0.062319178
24	0x3e014fca	0.12628093
25	0xbd364065	-0.044495005
26	0x3be4de9b	0.0069845445
27	0xbc88ecf3	-0.016714549
28	0x3dbe0978	0.0927915
29	0xbde83cbe	-0.11339711
30	0xbd6f4a9e	-0.05842077
31	0xbdef5ede	-0.11688016
32	0xbc922723	-0.017840927
33	0xbdbe8800	-0.09303284
34	0x3c8a48eb	0.016880473
35	0x3d9b0c8a	0.07570751
36	0x3c97da2f	0.018536655
37	0x3cc10f7b	0.023566952
38	0x3bb50c0e	0.0055251187
39	0xbd9be899	-0.07612724
40	0x3961dc19	0.00021539665
41	0x3dcd0d1e	0.100122675
42	0x3d70bc2b	0.0587732
43	0x3d54ec4d	0.051983166
44	0x3afa52b6	0.0019098136
45	0x3db607d2	0.0888821
46	0x3d969cc5	0.0735412
47	0x3d559566	0.05214443
48	0x3dcb918a	0.09939869
49	0x3d47f993	0.048821997
50	0x3b8f9ae2	0.004382477
51	0x3d656e5c	0.05601345
52	0xbdcce370	-0.10004318
53	0x3deed3db	0.11661502
54	0xbd034f2a	-0.03205792
55	0x3b990d12	0.0046707476
56	0xbc203251	-0.009777621
57	0xbd967cc7	-0.07348018
58	0xbd420d3b	-0.0473759
59	0x3dd48f40	0.10378885
60	0xbb1e21cc	-0.0024129031
61	0x3d96cdad	0.07363448
62	0x3c998454	0.018739857
63	0x3e090fff	0.13385008
64	0xbd5f9909	-0.054589305
65	0xbd9593b7	-0.07303565
66	0x3dff068d	0.12452421
67	0xbda4d78a	-0.08048923
68	0xbe02c016	-0.12768587
69	0xbc893b1c	-0.016751818
70	0x3d8e334e	0.06943379
71	0x3d52dd9c	0.051480874
72	0xbdad7934	-0.08470383
73	0xbdc4437d	-0.09583185
74	0x3d38003e	0.044922106
75	0xbdb23587	-0.08701616
76	0x3d49b59c	0.04924546
77	0xbc8fad5b	-0.017538717
78	0xbd466da4	-0.048444405
79	0xbc478fe0	-0.012180299
80	0x3db97b53	0.09056725
81	0xbde04a8d	-0.109517194
82	0xbddcc955	-0.107805885
83	0x3d5b74a0	0.05357802
84	0x3d484935	0.04889794
85	0xbc6c25ab	-0.014413278
86	0x3dc2d545	0.09513334
87	0xbca1f732	-0.019771192
88	0xbd58ee81	-0.05296183
89	0xbdcd7bcb	-0.10033377
90	0xbd7b8de6	-0.06141462
91	0xbda9e112	-0.08294882
92	0x3ccedde1	0.025252284
93	0xbd04743a	-0.032337405
94	0x3db1e94d	0.08687077
95	0xbd91cdad	-0.07119308
96	0x3d89ccf2	0.06728543
97	0x3ddae95d	0.10689042
98	0xbcee5492	-0.02909306
99	0xbd8bd49b	-0.06827661
100	0x3d64e118	0.05587873
101	0xbdeec3cb	-0.11658438
102	0x3db35df4	0.087581545
103	0x3dd5f692	0.1044742
104	0xbc3e0bff	-0.01159954
105	0xbda3c7e8	-0.079971135
106	0x3bb9aace	0.0056661135
107	0x3dbe1aa6	0.092824265
108	0x3ce6a8f9	0.028156744
109	0x3ca55d3a	0.020186055
110	0x3d3ad4cb	0.04561309
111	0x3d8e12b7	0.06937163
112	0x3cc8d21b	0.024514249
113	0xbd66ff98	-0.056396097
114	0x3876ae4f	5.8813308e-05
115	0xbd568c47	-0.052379873
116	0x3d72f761	0.05931795
117	0xbd7714ff	-0.060322758
118	0x3dcd8b27	0.10036307
119	0x3d5cc03b	0.053894263
120	0xbe0cb5c9	-0.1374122
121	0xbd5074eb	-0.05089275
122	0xbc719f75	-0.01474749
123	0xbd59a049	-0.053131375
124	0xbceebda6	-0.029143166
125	0xbd76f4e8	-0.060292155
126	0x3da9cd8e	0.082911596
127	0x3d4abdb1	0.04949731
128	0xbc1f5c5b	-0.009726609
129	0xbd455524	-0.0481769
130	0xbdb69e74	-0.08916941
131	0xbdaf9499	-0.08573265
132	0xbd73c68d	-0.059515525
133	0x3dc69539	0.09696431
134	0x39e2fb76	0.00043293432
135	0xbd8c97e8	-0.06864911
136	0xbc6a42e5	-0.014298175
137	0x3c81fc89	0.015867488
138	0x3cac2aaf	0.021016447
139	0x3d36f77a	0.044669606
140	0x3d8390e9	0.06424124
141	0xbd53b350	-0.051684678
142	0xbcc3aa93	-0.023885047
143	0xbde1de62	-0.11028744
144	0xbd5732da	-0.05253873
145	0xbdaafd84	-0.083491355
146	0x3b7cbe4f	0.0038565581
147	0xbd875e91	-0.06609834
148	0xbd339f1a	-0.043852903
149	0x3dfe00f0	0.124025226
150	0x3dc62f72	0.09677018
151	0x3cfef09e	0.031120595
152	0x3d8f466b	0.06995853
153	0x3da29d43	0.079401515
154	0x3c2f4704	0.010698084
155	0x3a941df2	0.0011300428
156	0xba939a50	-0.0011261199
157	0xbdabc1aa	-0.08386548
158	0x3ddd0cdb	0.107934676
159	0xbda28878	-0.079361856
160	0xbc66b280	-0.014080644
161	0xbdc239fc	-0.09483716
162	0xbda26b9d	-0.07930682
163	0x3dfb2810	0.12263501
164	0xbb4b87c3	-0.0031056262
165	0x3d20bd31	0.039242927
166	0x3d0256c7	0.03182104
167	0x3ddf39c8	0.10899693
168	0x3ca665c2	0.020312194
169	0x3cb8abc2	0.022542838
170	0xbd4fa3ee	-0.050693445
171	0x3ccd41a8	0.025055721
172	0x3c58caf4	0.013231982
173	0xbdc08e9c	-0.094022006
174	0xbdb7ef99	-0.089812465
175	0xbd51a9f6	-0.051187478
176	0x3dc66b28	0.09688407
177	0x3d840a29	0.064472504
178	0x3dbf9d32	0.093561545
179	0x3ddc9ac3	0.10771706
180	0x3b884195	0.0041582086
181	0xbdc1b295	-0.0945789
182	0x3ded02c5	0.11572794
183	0x3cf9bc59	0.030485319
184	0xbd21ffff	-0.039550778
185	0x3d6eb72c	0.058280155
186	0xbd894784	-0.06703094
187	0x3ccb2960	0.024800003
188	0x3de43675	0.11143199
189	0x3d394f1f	0.04524147
190	0xbdfd7702	-0.123762146
191	0x3df69be0	0.120414495
192	0x3d4d77d6	0.050163113
193	0x3c186d35	0.009303381
194	0x3e08b4e1	0.1335025
195	0x3d9bc1de	0.076053366
196	0x3daa1f3c	0.08306739
197	0x3da3109d	0.07962153
198	0xbd475980	-0.04866934
199	0xbdae8246	-0.085209414
200	0x3dcc0bab	0.09963163
201	0x3c972904	0.018452175
202	0x3e124a2e	0.1428611
203	0x3da02262	0.07819058
204	0xbdfc1723	-0.123091005
205	0x3dc0e5fc	0.09418866
206	0x3db8925d	0.090122916
207	0xbdbc26c8	-0.091870844
208	0x3bc847a0	0.006112054
209	0xbdaa2cc5	-0.0830932
210	0x3d70fba5	0.058833737
211	0x3d98753f	0.07444238
212	0x3d6a2334	0.05716248
213	0x3de708f8	0.112810075
214	0xbd755579	-0.059895966
215	0x3cbb25ce	0.022845175
216	0xbb82eadc	-0.0039952826
217	0x3de3f7ff	0.11131286
218	0x3de934c9	0.11387021
219	0xbd679026	-0.056533955
220	0xbdde4148	-0.10852295
221	0xbc2aa8f0	-0.010416254
222	0x3dedb4a2	0.116067186
223	0xbccb2f50	-0.024802834
224	0x3d8afa98	0.06786078
225	0xbd9e88db	-0.07740947
226	0xbd76f1e4	-0.06028928
227	0xbd9a085d	-0.075211264
228	0xbdc306e1	-0.095227964
229	0xbd0e8bf8	-0.034801453
230	0xbca36c52	-0.019949112
231	0x3d895fac	0.06707701
232	0x3dfddfa6	0.12396173
233	0x3ca0202d	0.019546593
234	0x3dad1b14	0.0845243
235	0xbd4bf385	-0.049792785
236	0xbc1c7327	-0.009548939
237	0xbdd79d5e	-0.10528062
238	0x3de4fc48	0.11180931
239	0x3d3feab0	0.046854675
240	0xbcacec67	-0.02110882
241	0xbdb3cbac	-0.08779082
242	0x3d2e8177	0.042603936
243	0xbdc5bc9a	-0.096551135
244	0x3dddb04b	0.10824641
245	0xbda63252	-0.081150666
246	0x3d7fd24f	0.062456425
247	0x3e0a2299	0.1348976
248	0xbdcf26c9	-0.101148196
249	0x3dd808a7	0.10548525
250	0x3e211f8d	0.15734692
251	0x3daf6d3a	0.08565755
252	0x3dfe1e9e	0.124081835
253	0xbccfd38d	-0.02536943
254	0xbca834fa	-0.020533074
255	0x3e051b8a	0.12998787

lstm.bias_hh_l0 f4 [256]
0	0x3d8f98e0	0.070115805
1	0xbd313521	-0.04326356
2	0x3e1c5acc	0.15269011
3	0xbb6aca3c	-0.0035826107
4	0xbd009076	-0.03138777
5	0x3d0cf91f	0.034417268
6	0x3e1080ce	0.14111635
7	0xbd792dee	-0.060834818
8	0x3c94fe8f	0.01818779
9	0x3bd82d88	0.0065972246
10	0xb8e2b10c	-0.00010809497
11	0x3d91307f	0.07089328
12	0x3c3ba6f3	0.011453378
13	0xbda3460f	-0.07972347
14	0x3c94076d	0.018069947
15	0x3dd99f5b	0.10626098
16	0xbd633ae5	-0.055476088
17	0x3dfd328a	0.12363155
18	0xbddd71a0	-0.10812688
19	0x3d47a645	0.04874255
20	0x3dbdd382	0.092688575
21	0x3d8ab050	0.0677191
22	0x3d81d586	0.063395545
23	0x3d255ecc	0.04037361
24	0x3bca31c8	0.006170485
25	0x3dc30979	0.09523291
26	0xbcbaf7fa	-0.022823323
27	0x3dc69775	0.09696857
28	0x3df1e97a	0.1181211
29	0xbded1fd0	-0.115783334
30	0x3ddc5061	0.107575186
31	0x3d1265fc	0.03574179
32	0xbd9b95f7	-0.07596963
33	0xbd605c8b	-0.054775756
34	0x3b139773	0.002252069
35	0x3e13e38a	0.14442268
36	0x3da91b4b	0.08257159
37	0xbcb239cd	-0.021756077
38	0xbd305d6c	-0.043057844
39	0xbd89df59	-0.06732053
40	0xbd332351	-0.043734852
41	0xbb91e755	-0.0044526258
42	0xbd961a4b	-0.07329234
43	0xbda7f79c	-0.082015246
44	0xbd2070d4	-0.0391701
45	0x3d213195	0.039353926
46	0x3d0e98fa	0.03481386
47	0x3d7edbc0	0.06222129
48	0x3deb669c	0.114941806
49	0x3d8e3d94	0.06945339
50	0xbd3eb6fb	-0.046561223
51	0x3d921b70	0.071341395
52	0xbd1c491a	-0.038155653
53	0x3e178bef	0.14799474
54	0xbc74806b	-0.014923195
55	0xbc9b7cad	-0.018980348
56	0xbcd71dd4	-0.02625934
57	0xbd498f96	-0.0492092
58	0x3ca83644	0.020533688
59	0xbc957eba	-0.018248904
60	0x3d05d048	0.032669336
61	0x3c38245a	0.011239136
62	0xbdbf1872	-0.093308344
63	0xbdd89f72	-0.10577287
64	0xbdb0e4e6	-0.08637409
65	0xbe005d23	-0.12535529
66	0xbdf566d6	-0.11982505
67	0x3dfe22f4	0.124090105
68	0x3d8c6779	0.06855673
69	0x3d7d7a49	0.0618842
70	0x3da249e0	0.07924247
71	0x3d09ebfc	0.033672318
72	0xbd2cab05	-0.042155284
73	0xbc6e7ed7	-0.014556608
74	0xbd3ee0da	-0.046601154
75	0x3d51e94b	0.051247876
76	0x3c4674f4	0.012112845
77	0xbdc0f5f0	-0.09421909
78	0x3cb0dc36	0.02158938
79	0xbdb004d3	-0.0859467
80	0x3da9953f	0.082804196
81	0xbcaa0e3c	-0.02075874
82	0xbc613e0c	-0.013747703
83	0xbd914ddb	-0.07094928
84	0x3c7db40e	0.015484823
85	0x3cd0d0e1	0.025490226
86	0x3d54d38b	0.051959556
87	0xbd9e0dc9	-0.07717473
88	0xbd5a7ae5	-0.053339858
89	0xbdbd311d	-0.09237883
90	0xbd9dc8a0	-0.07704282
91	0xbda7df90	-0.08196938
92	0xbdded95e	-0.10881303
93	0x3de84212	0.11340727
94	0xbdf917a5	-0.12162713
95	0xbd31716c	-0.04332106
96	0xb952ef31	-0.00020116266
97	0xbd37b5dc	-0.04485117
98	0xbd107494	-0.035267428
99	0x3d761bdd	0.060085166
100	0xbd0fb1d5	-0.035081703
101	0xbc4aad07	-0.0123703545
102	0x3debd40b	0.11515053
103	0xbd14ddcc	-0.036344334
104	0xbc212973	-0.009836542
105	0x3d9dc066	0.07702713
106	0xbd21fa09	-0.039545093
107	0xbdc75d48	-0.09734589
108	0x3ddc8696	0.10767858
109	0xbde32bdb	-0.11092349
110	0xbe073da0	-0.13207102
111	0xbd862b6a	-0.06551249
112	0x3c6276dd	0.0138222845
113	0x3de7723a	0.11301084
114	0xbdcee0d5	-0.10101477
115	0xbd7b0bcf	-0.06129056
116	0x3ddfeb03	0.10933497
117	0x3dcff591	0.1015426
118	0x3d1d762e	0.038442783
119	0xbdd61684	-0.10453513
120	0x3d660025	0.05615248
121	0xbbd43baf	-0.0064768414
122	0xbdbc7bca	-0.092032984
123	0x3daebbc1	0.08531905
124	0xbde23888	-0.11045939
125	0x3cdcdcbe	0.026960727
126	0xbd95a1da	-0.07306261
127	0x3dc9c106	0.098512694
128	0x3bc4df5f	0.006008073
129	0xbcc3b9b3	-0.02389226
130	0x3d9d0b62	0.07668187
131	0x3dccebe9	0.10005934
132	0xb97cdc46	-0.00024114651
133	0x3d83b2ff	0.06430625
134	0xbd359450	-0.044330895
135	0xbd84d404	-0.06485751
136	0xbd93fdc5	-0.07226137
137	0xbdcb370a	-0.09922607
138	0x3dcf438e	0.10120307
139	0x3d0f089e	0.034920327
140	0xbdd1b3a9	-0.102393456
141	0xbdc85146	-0.09781127
142	0x3da708e5	0.08155993
143	0x3b412e42	0.0029477035
144	0xbdbe8662	-0.09302975
145	0x3c645228	0.013935603
146	0xbcfbebc2	-0.030752067
147	0x3cd2ed33	0.025747871
148	0xbd57ff42	-0.052733667
149	0xbd52a10d	-0.05142312
150	0xbdb79fc4	-0.0896602
151	0xbd168d1b	-0.036755662
152	0x3c08edf5	0.008357515
153	0x3d738eca	0.059462346
154	0x3d025e9e	0.031828515
155	0x3d653284	0.05595638
156	0xbd0222a6	-0.031771325
157	0xbcdf740e	-0.027277019
158	0xbd88b9e1	-0.066760786
159	0xbdc18d66	-0.09450798
160	0xbd5ab555	-0.053395588
161	0xbc89af26	-0.01680715
162	0x3de6509f	0.11245846
163	0xbdfd37c7	-0.12364154
164	0x3dd0c91a	0.10194607
165	0x3d83a2c8	0.064275324
166	0x3d82a828	0.063797295
167	0x3d9f3a86	0.07774834
168	0x3d7b0a27	0.06128898
169	0x3e014044	0.12622172
170	0x3d58f39e	0.052966706
171	0xbcc39d06	-0.023878586
172	0x3d09cf67	0.03364506
173	0xbc8d4c1d	-0.017248208
174	0xbd7573ff	-0.059925076
175	0x3d473eca	0.048643865
176	0x3dea200e	0.11431895
177	0x3dde5dad	0.10857711
178	0xbcf84d25	-0.030310223
179	0x3c5a72d1	0.013333038
180	0x3d5a35c8	0.053273946
181	0x3d6e8734	0.05823441
182	0xbde729ed	-0.112872936
183	0x3cdc67eb	0.02690502
184	0xbc191b45	-0.0093448805
185	0x3e02fc4e	0.12791559
186	0x3d66786a	0.05626718
187	0xbd124499	-0.03570995
188	0xbd362a89	-0.04447416
189	0x3dd91794	0.106002
190	0xbd3286e6	-0.04358568
191	0x3d0df43d	0.034656752
192	0x3e08066b	0.13283698
193	0xbd8ac895	-0.06776539
194	0x3ccc4867	0.024936868
195	0xbdbcc6ca	-0.092176035
196	0xbce4cd9a	-0.02793007
197	0x3d83bfe0	0.064330816
198	0x3caf648e	0.021410253
199	0x3d8961b2	0.06708087
200	0xbd9a07cb	-0.07521018
201	0x3da7aa56	0.08186786
202	0xbc553d5c	-0.0130151175
203	0x3dc6e7c6	0.09712176
204	0xbd0f9148	-0.03505066
205	0x3e033d8d	0.12816449
206	0x3d1af838	0.037834376
207	0x3d91e474	0.07123652
208	0xbdc46bb4	-0.09590855
209	0x3d0faffd	0.035079945
210	0x3db8042a	0.08985169
211	0xbdb33045	-0.08749441
212	0x3de48a4e	0.11159192
213	0x3da63720	0.08115983
214	0xbd332bcc	-0.04374294
215	0xbd5e871e	-0.054328077
216	0x3dda6c0d	0.1066514
217	0xbcb66750	-0.02226606
218	0x3daf1d61	0.085505255
219	0x3b399efc	0.0028323522
220	0x3dea0d34	0.114282995
221	0xbdbca6d4	-0.092115074
222	0x3a64158c	0.00087007205
223	0x3d690970	0.056893766
224	0xbd2210d6	-0.039566837
225	0xbcab1b95	-0.020887176
226	0xbb955b72	-0.0045580203
227	0x3e1e648f	0.15468048
228	0x3d89aaf0	0.06722057
229	0xbdcca1d9	-0.099918075
230	0x3d8bd1b8	0.0682711
231	0x3dfed5d6	0.1244313
232	0x3dabdecc	0.083921045
233	0x3df11e2a	0.117733315
234	0x3c19dcbd	0.009391007
235	0x3d2e1831	0.04250354
236	0x3e2abfff	0.16674803
237	0x3e01c374	0.12672216
238	0xbd2bdef5	-0.041960675
239	0x3d751f88	0.059844524
240	0x3c954591	0.018221648
241	0x3e0c0424	0.13673455
242	0xbd124923	-0.03571428
243	0x3c2ecb91	0.010668651
244	0x3d8f50e3	0.0699785
245	0x3c88adec	0.016684495
246	0xbcbd777d	-0.023128266
247	0x3e27b2e4	0.16376835
248	0xbd3e9354	-0.04652722
249	0x3db94bd5	0.09047667
250	0x3c16a882	0.009195449
251	0xbdfff351	-0.12497581
252	0xbd9b4f2c	-0.0758346
253	0x3d857438	0.065163076
254	0x3dba341d	0.09091971
255	0x39869f0e	0.00025676977

lstm.weight_ih_l1 f4 [256, 64]
0	0x3de0b62f	0.10972249
1	0xbc60de3d	-0.013724861
2	0x3dbf2ee3	0.09335115
3	0x3db568ac	0.08857855
4	0x3d49d33c	0.049273714
5	0x3ddad16c	0.10684475
6	0xbd315be5	-0.043300528
7	0xbddb7391	-0.10715402
8	0x3e03291a	0.12808648
9	0x3db8f9ab	0.090319954
10	0x3dbda135	0.092592634
11	0x3da312c2	0.07962562
12	0xbd6573a9	-0.056018505
13	0x3c552061	0.013008208
14	0xbcd1dc0f	-0.025617627
15	0xbd05ae9e	-0.03263723
16	0x3e244e43	0.1604548
17	0xbddda51c	-0.10822508
18	0xbe04c725	-0.12966593
19	0xbcac3571	-0.021021577
20	0x3de143ae	0.10999237
21	0xbe17d575	-0.14827521
22	0x3d262ddb	0.040571075
23	0xbcccaf6f	-0.024985997
24	0xbca8dbac	-0.02061256
25	0x3d3c63d3	0.045993637
26	0x3dab431d	0.0836241
27	0x3c038560	0.008027405
28	0xbdb17d95	-0.08666531
29	0x3da62b49	0.08113725
30	0xbc39f6e1	-0.011350364
31	0xbdc0c276	-0.094120905
32	0x3c4c0d71	0.012454377
33	0x3dff1c95	0.124566235
34	0x3d4235ad	0.04741447
35	0xbd10f9bd	-0.03539442
36	0xbdb9861f	-0.09058785
37	0x3d994025	0.07482938
38	0xba4a297d	-0.0007711871
39	0x3dc49223	0.09598186
40	0x3dac3737	0.08408969
41	0xbd737ec6	-0.059447072
42	0xbb157de2	-0.0022810628
43	0x3e26a630	0.16274333
44	0xbd0f4f95	-0.034988005
45	0xbb99631e	-0.004681005
46	0xbdcc4e19	-0.099758334
47	0x3d11f786	0.035636447
48	0xbd36f290	-0.04466492
49	0xbd9641e4	-0.073367864
50	0xbe0ea56b	-0.1393029
51	0x3c141471	0.009038077
52	0x3c31205d	0.010810939
53	0x3c90fef3	0.017699694
54	0x3de06639	0.109569974
55	0xbe28117c	-0.1641292
56	0xbd526d11	-0.051373545
57	0x3dc29b30	0.09502256
58	0xbd566ebb	-0.052351695
59	0x3d611f16	0.054961286
60	0xbe1a8bf5	-0.15092452
61	0x3d8e1c3a	0.069389775
62	0x3d04cc60	0.03242147
63	0xbe02d0bb	-0.12774937
64	0xbcd95363	-0.02652902
65	0x3e10fefc	0.14159769
66	0x3c17c4fa	0.0092632715
67	0x3d9e734d	0.07736836
68	0x3c66fe56	0.014098724
69	0xbdc8ad29	-0.09798653
70	0xbe0c81e9	-0.13721432
71	0x3e09ac98	0.13444746
72	0xbc862c96	-0.016378682
73	0x3dbfb514	0.0936071
74	0xbe09797f	-0.13425253
75	0xbe1e85f0	-0.1548078
76	0x3d4a6744	0.049414888
77	0x3df1714b	0.11789187
78	0x3d4aae2d	0.049482513
79	0x3d453a66	0.048151396
80	0x3cbf2f21	0.023337903
81	0x3d205c74	0.03915067
82	0x3bc41e38	0.0059850477
83	0x3e316da5	0.17326982
84	0xbc8a28ae	-0.0168651
85	0x3e2fbda5	0.17162187
86	0xbdb972c8	-0.09055096
87	0x3d85a2f2	0.0652522
88	0x3c4740f4	0.012161482
89	0x3e0fc8af	0.14041398
90	0x3caa2f3a	0.020774473
91	0xbc8e280d	-0.017353082
92	0x3ccc6a2d	0.024952972
93	0xbd15c72f	-0.03656691
94	0xbd887b96	-0.06664197
95	0x3dd8bf8f	0.10583412
96	0xbc918b4d	-0.01776662
97	0xbb55d0c5	-0.0032625657
98	0xbcbd4817	-0.023105664
99	0xbe154b2c	-0.14579457
100	0xbe00ea0d	-0.12589283
101	0xbe200250	-0.15625882
102	0xbd85c11d	-0.06530974
103	0xbda50588	-0.080576956
104	0x3dbc8851	0.09205688
105	0x3dbf876a	0.09352
106	0x3df97a91	0.12181581
107	0xbd2eead9	-0.042704437
108	0xbd1745f0	-0.036931932
109	0xbe20474d	-0.15652199
110	0x3db7fe7e	0.089840874
111	0xbd05affc	-0.032638535
112	0x3d6ad4fa	0.057332017
113	0xbe1d2749	-0.15347017
114	0xbcadf318	-0.02123408
115	0x3d1b28b2	0.037880607
116	0x3d3cae28	0.046064526
117	0xbd405dff	-0.04696464
118	0xbdeef48e	-0.11667739
119	0xbd2e0dd7	-0.042493667
120	0x3df18a30	0.11793935
121	0x3d4004dc	0.046879634
122	0x3cb52d79	0.02211641
123	0x3e079383	0.13239865
124	0xbd12e401	-0.035861973
125	0x3cda2022	0.02662665
126	0xbce48137	-0.027893646
127	0x3c22e644	0.009942595
128	0x3cd9dbdc	0.026594095
129	0xbd15f8ed	-0.036614347
130	0x3e21f738	0.15816963
131	0xbe065f2d	-0.13122244
132	0xbda4bece	-0.080442056
133	0x3c34c935	0.0110343
134	0xbcf44a93	-0.029820716
135	0x3dba049b	0.0908291
136	0x3da53825	0.08067349
137	0x3d8ef8a8	0.06981021
138	0x3de5d6d9	0.112226196
139	0x3caa5e0b	0.020796796
140	0x3d967634	0.07346764
141	0xbd2be1bd	-0.041963328
142	0x3dfd1b9d	0.123587824
143	0xbc5a8e11	-0.013339535
144	0x3da8d522	0.08243777
145	0x3ca7ba2c	0.020474516
146	0xbd92f8d3	-0.07176366
147	0x3dc25f97	0.094908886
148	0x3e0a03a9	0.13477959
149	0xbd21bf8d	-0.039489318
150	0xbd84937a	-0.064734414
151	0xbe090d1c	-0.13383907
152	0x3d4357d0	0.047691166
153	0xbdad0403	-0.08448031
154	0xbdb97641	-0.09055758
155	0x3e056936	0.13028416
156	0x3d3d8c15	0.04627617
157	0x3da832a4	0.08212784
158	0xbda0dc16	-0.07854478
159	0xbdcc0e55	-0.09963671
160	0xbd73067c	-0.059332356
161	0x3dd4dddb	0.10393878
162	0xbd8df8da	-0.0693223
163	0xbd9fdfae	-0.078063354
164	0xbc711497	-0.014714382
165	0xbd39b763	-0.045340907
166	0x3db843f4	0.08997336
167	0x3dbf9854	0.09355226
168	0xbdf8c0f9	-0.121461816
169	0xbc02e4c8	-0.007989116
170	0xbd0312d5	-0.03200038
171	0xbd3bff6e	-0.045897894
172	0xbdc5b9c4	-0.096545726
173	0x3e116c15	0.14201386
174	0xbdaef38a	-0.08542545
175	0x3db8f5a1	0.09031225
176	0xbc49cc0f	-0.012316718
177	0xbd9d2f04	-0.07674983
178	0xbd4b6c09	-0.049663577
179	0xbdb9eb4f	-0.09078085
180	0xbd826393	-0.063666485
181	0xbddfc478	-0.10926145
182	0x3d26f718	0.04076299
183	0xbddccc5c	-0.10781166
184	0x3dce30bf	0.10067891
185	0xbdafd873	-0.08586206
186	0xbd36ea1e	-0.044656865
187	0x3d60fb53	0.05492718
188	0xbde42fbb	-0.11141916
189	0xbd5b0018	-0.053466886
190	0xbe044f47	-0.12920867
191	0xbe17ca52	-0.14823273
192	0x3daa972f	0.08329617
193	0x3a47ad20	0.0007617045
194	0x3d216801	0.039405826
195	0x3d8eddcd	0.06975899
196	0xbcedbad8	-0.029019758
197	0xbdaa6e72	-0.08321847
198	0xbdca7d87	-0.09887224
199	0xbc03f485	-0.0080539035
200	0xbd5826d1	-0.052771393
201	0x3dbf77e9	0.09349043
202	0xbaa63f02	-0.0012683573
203	0x3e08c645	0.13356884
204	0x3cbc2ccf	0.022970585
205	0xbdaecd19	-0.08535213
206	0xbdbcc53d	-0.09217308
207	0x3db60db6	0.08889334
208	0xbdb8176b	-0.089888416
209	0x3da732d5	0.08163992
210	0xbd90066d	-0.070324756
211	0xbde51a6a	-0.11186679
212	0xbcb87447	-0.022516383
213	0x3d52d7c5	0.051475305
214	0x3d882e9e	0.066495165
215	0xbe040980	-0.12894249
216	0xbdd53eb0	-0.10412347
217	0x3d79dbb9	0.06100056
218	0x3dd57292	0.10422243
219	0xbd4d259a	-0.050084688
220	0x3d9d73f7	0.07688134
221	0xbd1d2650	-0.038366616
222	0xbdae3b62	-0.0850742
223	0x3d50fe17	0.05102357
224	0xbe06255d	-0.1310019
225	0x3cac6b25	0.021047184
226	0x39b949a4	0.00035340816
227	0xbcf38528	-0.02972658
228	0x3bb3887c	0.0054789167
229	0xbdb6be18	-0.08922976
230	0x3db0a487	0.08625131
231	0xbd7c8bbc	-0.0616567
232	0x3d452267	0.04812851
233	0x3ccb59b3	0.024823045
234	0xbcdd256a	-0.02699538
235	0x3ca39b22	0.019971434
236	0xbdb9e219	-0.09076328
237	0x383ec848	4.5486056e-05
238	0x3d443731	0.047904197
239	0xbd1b4c66	-0.037914656
240	0x3da69abc	0.08134982
241	0xbd95419c	-0.072879046
242	0xbd305a71	-0.043055
243	0x3d822a31	0.063557036
244	0x3d8aac56	0.06771152
245	0xbe1513fa	-0.14558402
246	0xbd664280	-0.056215763
247	0x3d0d1735	0.03444596
248	0xbc0baa26	-0.008524453
249	0x3e0113bf	0.12605189
250	0xbe170711	-0.1474879
251	0x3be238e1	0.006903753
252	0xbdf0cb72	-0.11757554
253	0x3d1e2d49	0.038617406
254	0xbd932f54	-0.071867615
255	0xbd00977a	-0.03139446

lstm.weight_hh_l1 f4 [256, 64]
0	0xbdbf4306	-0.093389556
1	0x3c8417ba	0.016124595
2	0xbd99d29c	-0.07510874
3	0xbdaf5e4f	-0.0856291
4	0xbd69e09f	-0.05709898
5	0xbd2e3c5c	-0.042538032
6	0xbd92f464	-0.0717552
7	0xbc70f7ba	-0.0147075
8	0x3dd398b2	0.10331859
9	0x3d384508	0.04498771
10	0xbc7c34ce	-0.015393449
11	0xbe116fba	-0.14202777
12	0x3d961595	0.07328335
13	0x3df5f74c	0.12010059
14	0xbc5e153f	-0.01355487
15	0x3de1306a	0.109955624
16	0x3dfacd29	0.122461624
17	0x3d2f620d	0.042818118
18	0xbdf852f3	-0.12125196
19	0xbcd344df	-0.025789676
20	0xbc99c04d	-0.018768454
21	0x3c4bcbef	0.012438758
22	0xbd04885a	-0.032356597
23	0xbd5aed41	-0.05344892
24	0xbd843e62	-0.06457211
25	0xbc7b4490	-0.015336171
26	0xbdb2b7b0	-0.08726442
27	0xbd939f3d	-0.07208107
28	0x3d58d730	0.052939594
29	0x3db125f6	0.086498186
30	0x3e19f4af	0.15034746
31	0x3deb8fc2	0.11502029
32	0xbdffba7b	-0.1248674
33	0xbc8bc96e	-0.017063823
34	0xbd27ca8a	-0.04096464
35	0x3d15d263	0.036577594
36	0x3dfa91f5	0.1223487
37	0x3db7353e	0.08945702
38	0x3dc13479	0.094338365
39	0xbdb44d3d	-0.088037945
40	0x3deed6fd	0.116620995
41	0xbda501fa	-0.080570176
42	0xbdb49700	-0.088178635
43	0x3d80726a	0.06271823
44	0x3db53382	0.08847715
45	0x3da9c5bd	0.08289669
46	0xbdfc10c8	-0.12307888
47	0x3d4e6fd1	0.050399605
48	0xbd2ce3c5	-0.042209405
49	0x3d152594	0.03641279
50	0xbd6acebc	-0.057326064
51	0xbd53a4b8	-0.05167076
52	0xbd0dc0ac	-0.034607574
53	0xb9acddcb	-0.00032971645
54	0x3d9591e9	0.07303221
55	0xbd56ca5e	-0.052439086
56	0xbd4b49eb	-0.04963104
57	0x3d9efe0b	0.077632986
58	0xbd3aa832	-0.04557056
59	0xbdef0e4c	-0.11672649
60	0xbc68ff47	-0.014221019
61	0x3d524e81	0.0513444
62	0xb9e3495e	-0.00043351477
63	0x3c7c8552	0.015412645
64	0x3df2832a	0.11841424
65	0x3d1cd381	0.038287643
66	0x3d20c845	0.039253492
67	0x3dc6f065	0.0971382
68	0xbd16ca8f	-0.03681427
69	0xbd9ca64f	-0.07648908
70	0x3d68da6a	0.05684892
71	0xbd938821	-0.07203699
72	0x3d72d562	0.05928553
73	0x3ce1f83f	0.027584193
74	0x3db8a887	0.09016519
75	0x3d1447c8	0.03620127
76	0x3d39b1af	0.045335468
77	0x3d646c2f	0.055767234
78	0x3db143aa	0.08655484
79	0xbd8bace1	-0.068200834
80	0x3cb60abd	0.022221917
81	0x3d92fe07	0.07177358
82	0x3dfeb6bb	0.12437197
83	0x3daffe36	0.08593409
84	0xbe10ca13	-0.14139585
85	0x3db0863a	0.08619352
86	0x3cb4a1a6	0.022049736
87	0xbd9fec56	-0.078087494
88	0xbdfa4f9b	-0.12222215
89	0x3d8094f0	0.062784076
90	0x3d8db410	0.0691911
91	0x3da68e55	0.081326164
92	0x3d37a2d7	0.04483303
93	0xbd9beac5	-0.07613138
94	0xbe1d8711	-0.15383555
95	0xbbceb8bb	-0.0063086427
96	0xbd745757	-0.059653606
97	0xbd822c99	-0.063561626
98	0xbe0f1649	-0.13973345
99	0x3d697f75	0.057006318
100	0x3d614cdc	0.05500494
101	0x3d0f1be6	0.034938715
102	0xbdab5b8d	-0.08367071
103	0xbd62194a	-0.0551999
104	0xbca52af6	-0.020162087
105	0x3d37e2ae	0.044893913
106	0x3d44d9c2	0.048059233
107	0x3d0cb418	0.03435144
108	0xbc75120a	-0.014957914
109	0x39cfad68	0.00039611314
110	0xbd78565c	-0.060629234
111	0x3dddcdde	0.10830282
112	0x3dfcb743	0.12339642
113	0xbc97a025	-0.01850898
114	0x3b367718	0.0027841982
115	0x3dae5c37	0.08513682
116	0xbdb33627	-0.08750563
117	0xbc21d3f7	-0.0098771965
118	0x3c1d1db4	0.009589601
119	0xbd873eb6	-0.06603758
120	0x3c309b3b	0.010779197
121	0xbdc35d02	-0.09539224
122	0xbc304dfe	-0.010760782
123	0x3da7be7f	0.08190631
124	0x3dfb6805	0.122756995
125	0x3df26117	0.11834925
126	0x3cdf20d9	0.027237343
127	0x3db26f04	0.08712581
128	0x3d8922b8	0.06696075
129	0x3b2bba3f	0.002620354
130	0x3d6b0fce	0.05738812
131	0x3da1cd87	0.07900529
132	0xbc1c90db	-0.009556021
133	0xbe0d4e9b	-0.13799517
134	0x3d6e9890	0.058250964
135	0xbd37a642	-0.04483629
136	0xbd31c342	-0.043399103
137	0xbd86bd01	-0.065790184
138	0xbd41b671	-0.04729313
139	0xbcd87124	-0.026421137
140	0x3def3f4d	0.116819955
141	0xbd9409b3	-0.072284125
142	0x3c2ad950	0.010427788
143	0x3c91cf74	0.017799117
144	0x3de3abbb	0.11116739
145	0xbd8b144f	-0.06790983
146	0x3d6f6659	0.058447216
147	0xbddb7728	-0.107160866
148	0x3d190ea5	0.03736748
149	0xbd973e6d	-0.07384954
150	0x3ccf3932	0.025295828
151	0x3d47b166	0.048753165
152	0xbc938e59	-0.018012213
153	0x3bac8c36	0.005265738
154	0xbd9416ef	-0.07230937
155	0xbdb7b3cc	-0.089698404
156	0xbdbf1bc5	-0.093314685
157	0xbc430aeb	-0.0119044585
158	0xbc2ee725	-0.010675226
159	0x3e372dc4	0.17888552
160	0x3d5c4a51	0.05378181
161	0x3cd0e10a	0.025497932
162	0x3d74faef	0.05980962
163	0x3b31457e	0.0027049477
164	0xbe0683a0	-0.13136148
165	0xbd03836b	-0.03210775
166	0x3dd232b3	0.10263576
167	0x3d72e1d7	0.05929741
168	0x3c0b26fb	0.00849318
169	0xbd529406	-0.051410697
170	0x3c03bbf1	0.008040414
171	0x3ae1991d	0.0017211769
172	0xbde0949a	-0.109658435
173	0xbc9624d7	-0.018328113
174	0xbd97268e	-0.073804006
175	0x3d845bf5	0.06462852
176	0x3d0d33b4	0.034473136
177	0x3c105d81	0.008811356
178	0x3d1161b5	0.03549357
179	0x3caf341a	0.021387149
180	0xbdcb3cf2	-0.09923734
181	0xbd1edd2d	-0.03878515
182	0xbdb3f114	-0.087862164
183	0x3cdc33b1	0.026880117
184	0x3de5b5c8	0.11216313
185	0xbd8f8510	-0.070078015
186	0x3c8b08e9	0.016972022
187	0x3dd38224	0.10327557
188	0x3d6dfcc8	0.0581024
189	0x3d355b77	0.04427668
190	0x3d301280	0.042986393
191	0x3ca8e5ef	0.020617453
192	0x3d91fd3a	0.07128377
193	0xbda6b4ad	-0.0813993
194	0x3d8be7a3	0.068312906
195	0xbd46403f	-0.048401114
196	0xbd635528	-0.055501133
197	0x3de479c5	0.11156038
198	0x3de5b2aa	0.11215718
199	0x3de8c2f3	0.113653086
200	0x3c0c0563	0.008546206
201	0x3d273e92	0.040831156
202	0xbd8e7026	-0.06954984
203	0xbb471036	-0.0030374653
204	0x3d2aa027	0.04165664
205	0xbd2aaf04	-0.041670814
206	0xbca6693b	-0.02031385
207	0xbd8b5ae0	-0.068044424
208	0x3d7d0494	0.061771944
209	0x3d018381	0.031619553
210	0x3a54fe30	0.0008125035
211	0x3de44582	0.1114607
212	0xbc8d13c1	-0.017221333
213	0xbcfc2c1d	-0.030782754
214	0x3e0372b7	0.12836729
215	0x3c961883	0.018322235
216	0x3c20eaf8	0.009821646
217	0x3c9f7299	0.019463824
218	0xbd72c20e	-0.059267096
219	0xbdcbf4fb	-0.09958836
220	0x3e07f480	0.13276863
221	0xbd9003bf	-0.070319645
222	0x3cd7149c	0.026254945
223	0x3dca8d36	0.09890215
224	0x3d8ccc07	0.06874853
225	0x3d58f3d3	0.052966904
226	0x3cfc70aa	0.030815441
227	0xbe124620	-0.14284563
228	0xbd1553f3	-0.036457013
229	0x3cb2b966	0.02181692
230	0xbb999332	-0.0046867365
231	0xbdd37d9d	-0.10326693
232	0xbd748bf8	-0.059703797
233	0x3df8165a	0.12113638
234	0x3c9ae753	0.018909132
235	0xbc046265	-0.0080801
236	0xbdbd2013	-0.09234633
237	0xbcd892b3	-0.02643714
238	0x3e145ef2	0.14489344
239	0xbd871210	-0.06595242
240	0xbdbbaac4	-0.0916343
241	0xbddbf6df	-0.10740446
242	0x3d8ad555	0.06778971
243	0x3e0d13c0	0.13777065
244	0x3db96fe7	0.09054547
245	0x3da30016	0.07959001
246	0x3bc92abb	0.006139127
247	0xbdaab123	-0.083345674
248	0xbd5ad4e5	-0.05342569
249	0x3cd88b94	0.026433744
250	0x3e130a11	0.14359309
251	0xbc5f6a07	-0.013636119
252	0x3d086bab	0.033305805
253	0x3db0751d	0.086160876
254	0xbc8a5f85	-0.01689125
255	0xbd98490e	-0.07435809

lstm.bias_ih_l1 f4 [256]
0	0x3c003305	0.007824664
1	0x3dbb0f19	0.09133739
2	0x3cfd6730	0.030932993
3	0x3dc34761	0.09535099
4	0x3dc75804	0.097335845
5	0x3b5d91d6	0.0033808849
6	0x3de7ea8f	0.113240354
7	0x3c2dbb9d	0.0106038125
8	0x3e00e2df	0.12586544
9	0xbdbf3e8c	-0.09338102
10	0xbdbb207a	-0.09137054
11	0x3d613ce9	0.05498973
12	0x3d7eb202	0.06218148
13	0xbcc0d0e5	-0.023537109
14	0xbd4d133e	-0.05006718
15	0x3d327f84	0.04357864
16	0x3e03e2d3	0.12879495
17	0x3d66d260	0.056352973
18	0x3dee9d03	0.11651041
19	0x3e0b0735	0.13576968
20	0x3da6ca17	0.08144014
21	0x3d01be0d	0.031675387
22	0xbd0e10df	-0.03468406
23	0xbdd6075a	-0.10450621
24	0x3dc41b01	0.09575463
25	0x3c9c1e48	0.019057408
26	0xbcea54dc	-0.028604917
27	0xbcd92722	-0.026507918
28	0xbd480d13	-0.048840594
29	0x3c8192d6	0.015817087
30	0x3de2ebd7	0.11080139
31	0x3e0a5fea	0.13513151
32	0xbd8bdac3	-0.06828835
33	0x3d1fd6da	0.039023258
34	0xbc79c741	-0.01524526
35	0xbdcafd20	-0.09911561
36	0x3dc3b69b	0.095563136
37	0x3dee8354	0.116461426
38	0x3dfaf9b4	0.12254658
39	0x3e03427d	0.12818332
40	0xbceda67c	-0.02901005
41	0x3d61a3f2	0.05508799
42	0x3d8952b0	0.067052245
43	0xbda377cd	-0.079818346
44	0x3dfe629a	0.124211505
45	0xbdaf6226	-0.08563642
46	0x3ce34edb	0.027747562
47	0xbc8ed376	-0.017434817
48	0x3dd9fa9c	0.10643503
49	0x3dee7b13	0.11644568
50	0x3d06157d	0.032735337
51	0xbd13e4f8	-0.036107033
52	0x3dc2efcb	0.09518393
53	0xbdbcf53c	-0.09226462
54	0x3c25f795	0.010129829
55	0xbdc69fc7	-0.09698444
56	0x3bb6fb5c	0.0055841636
57	0x3d9e7482	0.07737066
58	0x3da6c9ec	0.08143982
59	0xbd06451a	-0.032780744
60	0xbd1fb614	-0.038992003
61	0x3d859580	0.065226555
62	0xbd55a6e1	-0.0521611
63	0xbdb4e69b	-0.08833047
64	0x3dba40f0	0.09094417
65	0x3d2e901e	0.04261791
66	0xbdb38e7d	-0.08767412
67	0xbe000d62	-0.12505105
68	0x3d3adac3	0.045618784
69	0xbd117e02	-0.03552056
70	0xbd30d44f	-0.043171223
71	0x3dd6f35f	0.10495638
72	0x3d9bec53	0.07613435
73	0x3dd5db26	0.1044219
74	0x3cc625ce	0.024187949
75	0x3baafe80	0.005218327
76	0xbd96d214	-0.07364288
77	0x3d864bd3	0.06557431
78	0xbd6f239c	-0.05838357
79	0xbbc9e7aa	-0.0061616497
80	0x3bece413	0.007229337
81	0x3de0c384	0.10974792
82	0x3d46e27e	0.048555844
83	0xbdec43e1	-0.115363844
84	0x3c801897	0.015636725
85	0x3dc3c182	0.09558393
86	0xbcb2e7ca	-0.021839041
87	0x3db7f676	0.089825556
88	0xbcaaf69e	-0.02086955
89	0xbdacfeb5	-0.08447019
90	0x3df79c23	0.120903276
91	0xbd1e6410	-0.038669646
92	0x3dccbbb9	0.09996743
93	0x3dda637f	0.106635086
94	0xbd84fbe1	-0.064933546
95	0xbda1ce82	-0.07900716
96	0xbc128f56	-0.008945307
97	0xbd870c04	-0.06594089
98	0x3de882ff	0.113531105
99	0x3d884fc7	0.06655841
100	0x3df48b4e	0.11940633
101	0xbd5cd545	-0.053914327
102	0x3c86a6b0	0.016436905
103	0x3c2f517e	0.010700582
104	0xbdabe1cf	-0.08392679
105	0xbd50a739	-0.050940726
106	0x3d9644b2	0.07337321
107	0x3c09c3fa	0.008408541
108	0x3dd41f81	0.103575714
109	0x3c78368f	0.0151497265
110	0x3d2223de	0.039584987
111	0x3d3e5fe0	0.046478152
112	0xbd86959a	-0.06571503
113	0xbdbcd641	-0.09220553
114	0xbda92178	-0.08258337
115	0xbd186d9f	-0.037213918
116	0x3d1b585d	0.037926067
117	0xbd22767c	-0.039663777
118	0xbdcd824c	-0.10034618
119	0xbcfd61c3	-0.030930405
120	0xbde4bc20	-0.111686945
121	0xbd09ee89	-0.03367475
122	0xbdc0ab50	-0.09407675
123	0xbbe6acdb	-0.007039649
124	0xbdb4c383	-0.088263534
125	0xbdd79736	-0.10526888
126	0x3dcb6272	0.09930886
127	0x3e003333	0.12519531
128	0xbddb0892	-0.10694994
129	0x3b5c1d14	0.0033586668
130	0xbdffbf5b	-0.1248767
131	0xbdd814de	-0.10550855
132	0xbdeae06f	-0.114685886
133	0xbd9f791c	-0.07786772
134	0x3e053fd6	0.13012633
135	0x3d33bc56	0.043880783
136	0x3d82c276	0.06384747
137	0xbd57e284	-0.052706257
138	0x3d10146e	0.035175733
139	0x3d83155b	0.064005576
140	0x3d73a3c2	0.059482343
141	0xbc62a2aa	-0.013832727
142	0xbd803cd9	-0.06261606
143	0x3d95d73d	0.07316444
144	0x3dd87160	0.105684996
145	0xbd44c092	-0.04803521
146	0x3da89063	0.082306646
147	0x3cf5dda2	0.03001291
148	0x3ca63eb5	0.020293573
149	0x3dd5a33f	0.10431527
150	0xbb590c7b	-0.0033119011
151	0xbb821189	-0.0039693755
152	0xbcedcdba	-0.029028762
153	0xbdf7d48b	-0.12101086
154	0x3c14908d	0.009067667
155	0x3be57be4	0.0070032943
156	0x3c42c435	0.0118876
157	0x3d13619a	0.035981752
158	0xbd232cab	-0.03983752
159	0x3de4b043	0.11166432
160	0xbdf5b966	-0.119982526
161	0x3c512678	0.012765519
162	0xbcc657fc	-0.024211876
163	0x3cb78b24	0.022405215
164	0xbd70cbdf	-0.058788177
165	0x3d2f7354	0.042834595
166	0xbda40760	-0.08009219
167	0x3cc186b6	0.023623805
168	0xbc9ba17a	-0.018997896
169	0x3dcaabc1	0.09896041
170	0x3e0a0b35	0.13480838
171	0x3e062994	0.13101798
172	0xbd8b12f4	-0.067907244
173	0x3da2aa3a	0.079426244
174	0xbd487118	-0.04893598
175	0x3cd94d3a	0.026526082
176	0x3cfc3c08	0.030790344
177	0xbdca0883	-0.09864905
178	0xbdf2a56b	-0.11847957
179	0x3cc55305	0.024087438
180	0x3ac96d0b	0.001536758
181	0xbde15282	-0.11002065
182	0x3d735b23	0.059413087
183	0x3da11844	0.078659564
184	0xbcdd0642	-0.026980523
185	0xbde3889b	-0.1111004
186	0x3d856837	0.06514018
187	0xbd8b8cc9	-0.06813962
188	0xbcc99230	-0.02460584
189	0xbd37f23d	-0.04490875
190	0x3d7059de	0.058679454
191	0x3d438a35	0.047739226
192	0xbdb22852	-0.08699097
193	0xbdcfc3e3	-0.10144784
194	0xbd1254f6	-0.035725556
195	0xbde5a3a0	-0.112128496
196	0x3c53fe61	0.012939067
197	0xbd05417b	-0.03253315
198	0xbc9b5233	-0.018960094
199	0xbe000c5b	-0.12504713
200	0x3e0d6a2a	0.1381003
201	0xbd49e17f	-0.049287315
202	0xbc03ec57	-0.008051953
203	0x3ddfe90f	0.10933124
204	0x3bd2d8b7	0.006434526
205	0xbb32011f	-0.0027161313
206	0x3d6826c3	0.05667759
207	0xbcf719e3	-0.030163711
208	0x3de2137f	0.11038875
209	0x3cca3150	0.024681717
210	0x3da92ea4	0.08260849
211	0x3d2a9d87	0.041654136
212	0xbb3c3edf	-0.0028723998
213	0xbd0f21cb	-0.034944337
214	0x3cf7e9f7	0.03026293
215	0xbd42c32e	-0.04754942
216	0x3dde3550	0.10850012
217	0x3dca23a7	0.098700814
218	0xbd0f03a2	-0.034915574
219	0xbd5c2376	-0.053744756
220	0x3c15c786	0.009141808
221	0x3e024b79	0.12724103
222	0x3d24cf39	0.040236685
223	0x3e0f82bd	0.14014716
224	0x3d24d7e9	0.04024497
225	0x3c8dc974	0.017307974
226	0xbd8f05b0	-0.06983507
227	0x3c87b689	0.016566532
228	0xbd710f53	-0.058852505
229	0xbd3a61aa	-0.045503296
230	0x3dc322d6	0.09528129
231	0xbd3c5dcd	-0.045987893
232	0xbd381bb0	-0.04494828
233	0x3e0302a6	0.12793979
234	0xbcd55bcc	-0.026044749
235	0xbda81903	-0.082078956
236	0xbca9123d	-0.02063858
237	0x3ccba140	0.024857163
238	0xbda40cfe	-0.080102906
239	0xbdc6b166	-0.09701805
240	0xbd7a82cf	-0.061159905
241	0x3cce01a3	0.025147265
242	0x3c02c2b6	0.007980993
243	0xbdbaf324	-0.09128407
244	0xbda7858e	-0.081797704
245	0x3d13c421	0.036075715
246	0xbd90f9c8	-0.07078892
247	0xbd503807	-0.05083468
248	0xbd14bb65	-0.036311526
249	0xbe09ac73	-0.1344469
250	0x3b60fea6	0.003433147
251	0xbc26d920	-0.010183603
252	0x3d465e1d	0.048429597
253	0x3d098965	0.033578295
254	0x3daf323b	0.085545026
255	0xbc213bf8	-0.009840958
